examples/mnist/checkpoint/model.npz (npz, 852134 bytes, 8 tensors)

conv1.weight f8 [6, 1, 5, 5]
000000 f9 53 ec db fb 97 9b 3f ab 9f ff 7d 73 01 cf bf
       0.02694695977978154 -0.24223178531906106
000010 dd 35 10 61 74 26 c4 bf e6 7b 0e b7 b4 3e c4 bf
       -0.1574235414449693 -0.15816363275823092
000020 8d 7e 97 76 61 d9 de bf 27 63 fd be fe 28 f0 3f
       -0.48201786595561985 1.0100085697687946
000030 f2 b2 4a 15 f5 b6 e9 bf 28 ad ab 3b 7b af c3 bf
       -0.8035836616378147 -0.15379276670078323
000040 41 5d 42 99 12 6b e8 3f 45 01 99 76 79 96 c6 bf
       0.7630703919739191 -0.17646711626913195
000050 e0 6b f1 32 fd 71 dd 3f f0 77 03 e0 df 0a d6 bf
       0.4600823400011773 -0.3444137275345147
000060 ea 00 ae 66 4a 77 d7 bf 30 4c c9 ee 6e bb e3 bf
       -0.36665592219652743 -0.6166300452990807
000070 99 dd 4d 93 97 4b d7 3f 2d 35 72 01 23 78 c5 bf
       0.36398877511188626 -0.1677287823735382
000080 44 2f 04 5a 40 6e ea bf 00 8a a6 c1 f9 36 e5 bf
       -0.8259584196216356 -0.6629608900296375
000090 43 4e 64 12 f3 2b b3 3f 78 7b 38 4f 73 85 be 3f
       0.07488936614054702 0.11922379192445287
0000a0 25 25 1b 73 5a 83 e9 3f 31 a8 2a ef f4 fd bb 3f
       0.797284340683437 0.10934382285145784
0000b0 55 ee 04 47 be b8 d9 3f 02 1d 93 14 2d 3e c7 3f
       0.4019008344218709 0.1815849638426031
0000c0 ca 3e c0 22 b1 0b e3 bf 3f 6e 76 40 d5 60 aa bf
       -0.5951772383432055 -0.0515200272741052
0000d0 24 33 1b 70 f6 ea e5 3f 92 65 d3 81 c1 41 cb 3f
       0.684931963880079 0.21294421042584283
0000e0 5e de d7 f7 0a ed bb 3f bd a3 4d 28 a4 bb d5 bf
       0.1090857367597606 -0.33957771240107687
0000f0 9f e4 47 74 b5 a5 d7 3f a2 e7 49 77 07 b9 e1 bf
       0.36948906283903143 -0.5538365678651085
000100 b0 d5 24 a2 8a c8 e6 bf 98 cb cd 6b 32 6a b5 3f
       -0.711980168044354 0.08365168697291236
000110 6a 54 66 bb d2 5d c3 3f 50 97 f7 02 fa c7 b4 bf
       0.1513007559812281 -0.0811764008754754
000120 87 f3 4e e6 9d 1d dc bf df 9f a2 9b f5 a8 d2 3f
       -0.4393076657395842 0.2915624637485034
000130 fe 31 4a 8a 98 fb d7 bf d9 b3 78 17 94 1e dd 3f
       -0.3747311926352096 0.4549913624967395
000140 b5 7e 27 6e 6e a1 ac 3f fd 8b b4 2d bd 1e d7 bf
       0.05591912359863952 -0.3612511583652916
000150 63 7a 0c 1d 07 5f cf bf fc 18 4a 57 dd 77 c0 bf
       -0.24508751791377667 -0.12865797769718046
000160 1b 1f 26 19 74 85 e5 3f e9 0b 28 07 40 a4 c2 3f
       0.6725407115163508 0.14563751553950446
000170 7b 19 6e 75 92 b2 da 3f 64 63 c2 10 ce d4 d7 bf
       0.4171491762903298 -0.37236358296063643
000180 64 0e 29 ef c5 7f d4 bf 56 7c 5a 70 d3 69 a6 3f
       -0.32029865603929 0.043776137795469225
000190 ea de e3 6b c7 06 c7 3f 22 ec 6a a9 d2 37 b8 3f
       0.17989437835762284 0.09460178981946446
0001a0 df 29 67 a8 b0 1d d2 bf ef 95 83 63 fa ce d1 bf
       -0.28306213803867125 -0.2782579395119162
0001b0 9d 9f a0 7b 1f 5a d9 3f 3f 77 60 cd 84 23 d0 bf
       0.3961256701754737 -0.25216789299325976
0001c0 43 d7 05 77 b8 98 d0 3f ac 2e 33 53 43 89 db 3f
       0.25932132361719 0.43025286793702366
0001d0 38 da 49 73 e4 8b ee 3f 24 94 1b 63 b8 ab b1 bf
       0.9545767070511095 -0.06902649325964255
0001e0 ca a6 3c c3 a2 d0 ec bf da d4 c7 61 58 dd d5 3f
       -0.9004682362767309 0.34163484143148326
0001f0 3a c2 d9 ba 60 92 cf bf 63 1e c2 32 aa 1b a5 3f
       -0.24665459750714708 0.04122669095619071
000200 e1 ad f9 b3 ab b3 c6 3f 83 d0 37 93 87 a0 e5 3f
       0.17735811508042246 0.6758458972312983
000210 d0 9a 33 0b 8a ea d4 bf 93 8b 89 5c 6e fb d3 3f
       -0.3268151387587013 0.3122211364445146
000220 1a 27 0d 3d d2 c8 e4 bf 37 e3 84 52 d2 b7 d7 3f
       -0.6495143120202755 0.37059457834725457
000230 05 3e 65 15 96 4a de 3f 91 0a 07 82 17 73 db bf
       0.4733023842754565 -0.42889964769362005
000240 bf 86 df 19 af 7a af 3f c6 78 b1 ac 52 e6 af bf
       0.06148287955126141 -0.06230409963676346
000250 a6 b6 ae 5c 95 63 ca 3f 1b 86 94 52 22 1c db bf
       0.20616404557715845 -0.4235921675154672
000260 ba a8 0c ef f7 2a b5 3f 5b 60 e5 11 af 50 e9 3f
       0.08268689714592173 0.791099104836586
000270 89 9a cf 15 5f b3 bd 3f d0 b1 cf a5 05 38 7a bf
       0.1160182407616991 -0.006401083051042325
000280 c2 22 f0 5a 67 c1 d8 bf 01 9d cb ce c6 75 d6 3f
       -0.38680442696253803 0.35093851275310334
000290 17 9d b1 e1 f5 22 d8 3f 32 9e 32 d8 b1 57 ba bf
       0.3771338180581138 -0.10290061500801853
0002a0 14 10 b7 a2 00 07 dc 3f 3f 79 9a 1e 3d 58 cb 3f
       0.4379273976339857 0.2136303328924871
0002b0 5f bc 5e ca 4d f1 c4 3f 12 bf 5b b9 b1 23 ea bf
       0.1636140096793239 -0.8168572063713972
0002c0 b3 e3 6c 06 41 a1 d3 bf d2 fb c8 bc e5 3a e9 bf
       -0.30671716334796456 -0.7884396254738653
0002d0 8a 04 7a d0 67 c6 d9 bf 81 10 66 df fb a2 b2 bf
       -0.4027347122101409 -0.07279943660802425
0002e0 60 4c 34 b7 57 76 e2 bf f5 e1 ba 3c 2a 52 ec bf
       -0.5769461229523465 -0.8850299059041037
0002f0 fc 47 12 34 36 bc c6 3f ee 4d 04 1e f0 28 d8 bf
       0.17761876623677597 -0.377498654664321
000300 63 85 16 6e c9 7e d1 bf 4c 6d bd 7b 7b 16 d7 bf
       -0.2733634543493137 -0.36074721416453737
000310 7b 58 a6 1e 36 59 d0 3f 1e 2d f9 a5 2f fd c3 3f
       0.2554450320543606 0.15616412738959523
000320 4c 59 ef 00 50 37 d0 bf 04 f3 9b 95 c8 a2 ba 3f
       -0.25337600795082404 0.10404637959068103
000330 71 21 fb 0e 8e 39 c1 3f 1e 37 d9 ab e5 41 80 3f
       0.1345689366483032 0.007938188845539037
000340 57 c5 df 1b 07 6b cb bf 28 50 c2 f1 3b 53 87 3f
       -0.21420372830429343 0.011389225306892639
000350 91 8f 58 1f 34 20 e1 3f 49 b9 dd 86 00 bf e2 3f
       0.5351811039185909 0.5858156808952028
000360 66 c5 6a a2 ef bd e6 bf d3 b7 82 57 9a 02 e2 3f
       -0.7106855556686866 0.5628177365485904
000370 b0 06 95 55 86 71 d5 3f 21 ca fe fc 38 2d cc bf
       0.33505400045042233 -0.22013008454594377
000380 cf 49 ca b6 08 fe b4 bf b3 30 07 07 6a 7f e1 3f
       -0.0820012518181905 0.5468034875171014
000390 80 b7 2b 61 4d 9b cb 3f 4d 33 da 95 9d 37 df 3f
       0.21567694897333567 0.48776950487154097
0003a0 32 c5 ee e7 07 8c 94 3f ae c3 17 4a 0e 6d ee 3f
       0.020065425425575607 0.9508124777913645
0003b0 3f ea 1a 73 8b da b6 3f 7a 22 f9 90 b0 13 eb bf
       0.08927222786125187 -0.8461535293109386
0003c0 e7 fb 00 6a 4c 6f c8 3f 91 7d 8e b6 ae 7e f2 3f
       0.1908965604397672 1.1559283381573986
0003d0 ee 07 fd e0 bc da be bf f1 10 d8 b5 4d 02 9d 3f
       -0.12052517407303728 0.028329099868657562
0003e0 33 07 41 89 e6 41 82 bf 30 aa a9 11 43 2e e3 bf
       -0.008914757789287719 -0.599397215364041
0003f0 d8 28 67 4a 41 bd b6 bf b4 b8 59 fb 1a 1e d6 bf
       -0.08882530275801359 -0.34558748765892777
000400 0d c8 a4 1d 54 e7 90 3f a4 4a f8 a6 da fd d2 3f
       0.016507448491388788 0.296744025284321
000410 8a 20 4d 87 55 f9 d0 3f b8 08 ea c7 da 75 d4 bf
       0.265218145494608 -0.31969327471609743
000420 c9 9d 90 ff ed 26 de 3f 31 8e 52 e8 4b 74 d4 bf
       0.4711260791541148 -0.31959817588560485
000430 20 a8 4f 31 06 4a cf bf 1f 3f c8 d0 81 9b ca bf
       -0.24444653899928515 -0.2078706998295212
000440 0a 84 b8 f7 f4 20 ea 3f 05 14 bd cc 99 88 c6 bf
       0.8165230596824824 -0.17604372498513512
000450 48 70 6e f5 a9 a7 c7 bf 47 55 5f 4d 87 c2 c5 3f
       -0.1848041962047111 0.1699990394396684
000460 32 d6 d2 f7 9e 63 d1 3f 21 9a 8f db 72 2c e5 3f
       0.2717053814079434 0.6616758621501654
000470 7c cc 68 f4 f7 16 db 3f 05 8c 64 e7 61 83 e3 bf
       0.423276890450502 -0.6097878951444505
000480 76 b7 94 0a f6 4d a7 bf 67 01 fe 66 3d d2 b9 3f
       -0.04551667098199534 0.10086425556619859
000490 a0 e0 02 b7 70 43 d3 bf e4 a5 68 e6 bd 1d eb 3f
       -0.3009912287921086 0.8473805904551992
0004a0 0a 8c 46 4d 06 95 b0 3f a4 00 68 3c b9 c8 d8 3f
       0.06477393519030286 0.38725119494484717

conv1.bias f8 [6]
000000 00 00 00 00 00 00 00 00 00 00 00 00 00 00 00 00
       0.0 0.0
000010 00 00 00 00 00 00 00 00 00 00 00 00 00 00 00 00
       0.0 0.0
000020 00 00 00 00 00 00 00 00 00 00 00 00 00 00 00 00
       0.0 0.0

conv2.weight f8 [16, 6, 3, 3]
000000 36 f4 de 0f c2 6e d6 bf 4e 94 06 83 e9 b0 c7 3f
       -0.35051013517278606 0.18508643052806167
000010 4b 07 da 85 2e 34 aa 3f a2 1f dc d0 d6 9e c1 bf
       0.051179365004840514 -0.13765988538966406
000020 73 25 c5 f2 9c d3 cb bf c6 79 99 f3 a6 37 ac 3f
       -0.21739541868218346 0.05511209224345097
000030 3d f8 af fe e6 3c d7 3f f4 f5 86 c5 c7 c5 a7 bf
       0.3630921828443013 -0.04643081938000285
000040 97 b3 69 88 a2 d5 da 3f 04 ad 79 36 2d 8b d1 3f
       0.4192892391354745 0.27411966628888274
000050 e7 5d 96 ab 5c 51 bc 3f 6c eb b4 aa 5c 98 e2 3f
       0.11061648549217971 0.5810988744845935
000060 7c 70 c8 06 76 3f b4 bf 23 ef 73 9f 0b ae e1 bf
       -0.07909333863830342 -0.5524957765878508
000070 4f e3 10 73 5c 95 98 bf 74 9d a1 18 63 af 65 3f
       -0.024007267497128833 0.0026471076462716795
000080 78 58 9c 27 23 9b ba bf 9f 4c 2f 2d d5 a3 d4 3f
       -0.10392970768984522 0.32249955570768835
000090 6d 2d a5 72 3b e7 b9 bf 1d 3e 39 62 64 cd d9 bf
       -0.10118457364040064 -0.40316114036701994
0000a0 32 38 48 e2 5b 37 b0 3f 9e 51 f1 0e 64 bf cd bf
       0.06334471010652079 -0.23240328530904447
0000b0 ec 1a 37 ac 69 82 d5 bf e8 ef f1 0a 55 36 de bf
       -0.3360847646512599 -0.47206617421011154
0000c0 ae 53 da 1f cf fb c5 bf 26 1c 78 5c 42 8e ce bf
       -0.1717471032649462 -0.23871640696617752
0000d0 59 54 b8 fd a6 cb c7 bf 10 64 da 03 ba f3 a0 bf
       -0.1859024752490395 -0.033109486551616496
0000e0 31 70 a3 a1 80 0c b4 3f 05 51 c4 65 b2 40 d1 3f
       0.0783157724976611 0.2695737832848553
0000f0 c0 b7 df 7a cc 82 c6 bf e9 05 93 e3 d3 04 a9 bf
       -0.17586666106893567 -0.04886495736128522
000100 c1 f4 86 fb 0f 55 bb bf 2a 9b f1 34 16 16 b7 3f
       -0.10676669970321752 0.090180766988493
000110 16 ad a5 a1 c1 7c a0 3f 74 3f 0b d7 c3 34 c3 bf
       0.032201815588303415 -0.15004776001159892
000120 42 c0 08 50 37 5a db 3f 50 65 d7 cc 0f bf c9 3f
       0.42738135162199253 0.20114324094792346
000130 62 58 0a 87 7e a3 95 bf 9d 36 73 d9 1a 06 a6 3f
       -0.02113149356099376 0.043015326542087375
000140 2d 51 b8 9a 05 75 b6 3f 6e 8e be df fb 78 90 bf
       0.08772311236709092 -0.01608651688697054
000150 f3 6c e3 b8 4f 11 93 bf df 38 c6 4a cd a3 c5 3f
       -0.018620725307170138 0.16906133795823217
000160 75 d2 4a bf 73 f6 d3 bf e4 aa ad e9 51 2d b7 3f
       -0.31191724472890964 0.09053527789152899
000170 ef 98 d9 f9 65 47 bd bf 16 8b 0e 5a 98 19 ba bf
       -0.11437070226529376 -0.10195305060055335
000180 c0 02 93 a9 f7 ba ae 3f ea f4 e3 d3 30 be c4 bf
       0.060020198297484395 -0.16205416055883087
000190 b9 a9 b6 70 89 15 b2 bf cc 69 d9 31 c7 6c c2 bf
       -0.07064112664980983 -0.14394464429899612
0001a0 4a 99 de f1 1b a4 cc 3f 06 04 4d f8 ff 97 9a bf
       0.22375821409259294 -0.02597045853622506
0001b0 08 b0 ba 1b 8a b7 d8 3f 39 df cf b5 9b aa a2 bf
       0.38620236118254114 -0.03645788759598507
0001c0 d9 13 0c 3c 56 61 b1 3f 33 22 c6 b5 de 37 7a 3f
       0.06789149251933625 0.006400937997007849
0001d0 e1 0c f4 02 08 e1 aa 3f 14 78 de f1 5b 6f 9d 3f
       0.052498102531922226 0.028745113980782902
0001e0 20 18 be 98 33 c2 82 bf 05 3a f2 eb 3d ee c4 3f
       -0.00915947255976951 0.1635205652314228
0001f0 7c 93 8d b5 f5 7b d4 3f 35 60 74 f9 64 55 d3 3f
       0.3200659058550668 0.30208706246185396
000200 cc 40 72 ea 99 e7 d9 3f 18 51 e4 52 43 0b d5 bf
       0.4047608174814854 -0.3288124379626125
000210 65 71 8b 10 4d b9 b5 3f 75 51 d5 17 85 c7 dd bf
       0.08485871938632313 -0.4653027279612368
000220 df a6 72 ca 9c 68 ec 3f 7d 06 72 51 37 eb d5 bf
       0.8877700761852018 -0.3424814505925509
000230 2c 67 af 18 30 9d b9 bf 44 63 10 63 ec e6 cc 3f
       -0.10005474665322528 0.22579722249136058
000240 03 e6 4b d5 d4 34 72 bf 85 9b 2b ce 32 e5 b6 bf
       -0.004444915179868672 -0.08943479093032465
000250 e5 94 5a c8 47 18 cb bf 55 24 a1 71 b7 d1 d6 3f
       -0.21167847903158257 0.3565500840819074
000260 d2 70 da 28 d8 45 bd 3f df e4 7e 3b 91 31 d3 bf
       0.1143469905604804 -0.2999003487598894
000270 40 c4 4a f2 28 4b b4 bf 10 92 25 88 ec 81 cf 3f
       -0.07927184977849411 0.2461524643687345
000280 ea 74 cf 12 f7 6c 9d 3f 1f 32 78 43 fe 82 e5 3f
       0.028735981486410468 0.672240382934948
000290 b9 0b 9a 28 9c df bf bf a4 23 06 54 6b 4e c4 bf
       -0.12450576773885204 -0.15864316561444725
0002a0 34 75 da 5f 38 a1 d2 bf 4c e2 e3 5c a8 2e a0 bf
       -0.2910901008670692 -0.031605969752437874
0002b0 c0 ad 2f 90 2c 2d e6 bf f5 65 b7 f2 c1 e5 9f 3f
       -0.6930144134652707 0.031149893225892417
0002c0 9d 56 89 3f 54 16 ad bf 63 ce 49 c0 2e bf 84 3f
       -0.056810982471387585 0.010130276911900887
0002d0 dd fc c9 51 98 49 ce 3f ce 38 f4 06 ca 0a de bf
       0.23662094110111456 -0.46940851859188804
0002e0 f7 4b f3 df da 9c b1 bf bd 69 dc 96 dc ca bd 3f
       -0.06879966704882166 0.11637667353753663
0002f0 e4 71 77 1c e8 34 c5 bf bf 2b a0 a6 e8 c8 a2 3f
       -0.1656770838734608 0.03668906244282465
000300 d7 6b 05 63 a1 4a dd bf 5d 7b 97 64 70 1d c8 bf
       -0.45768007917439263 -0.18839840804772737
000310 88 66 bd 5a 39 9c b9 3f 75 6f 26 f8 80 94 e0 3f
       0.10004003968551889 0.5181279036219012
000320 19 3c 7f 1e 11 f6 b8 bf ba 47 ff 0d 26 35 c2 bf
       -0.09750468248897483 -0.1422469681115766
000330 f1 6f 1f 35 11 19 d1 3f 9d 39 de ea c9 0d d3 3f
       0.2671549814965593 0.2977165979035819
000340 ab e3 ee d3 3b 71 d2 bf 1c 58 fe 71 96 5d d9 3f
       -0.28816123673055455 0.3963371384828649
000350 cf bb 46 ba 01 87 c4 bf 23 bc ab 18 07 79 b2 3f
       -0.1603700789978277 0.07215923645320337
000360 6b 2a 79 8c e7 dc c5 bf af bc 3d a3 5d 77 99 3f
       -0.17080396994636557 0.02486940678448651
000370 18 a2 f6 23 5c 8c d3 3f b9 7d fa 26 3b 18 b9 bf
       0.30544188987781373 -0.09802598668692654
000380 ad b8 3e 38 77 df a8 3f 54 da c8 c3 15 0d c6 bf
       0.048579908004613294 -0.1722743230800058
000390 6a 0c 3e 5b 30 a7 c9 bf 7c 5e b2 07 fa 41 dc bf
       -0.20041470008081613 -0.44152689696918634
0003a0 29 fc cd 0b 1e 3e d2 bf c7 2d 76 b0 57 dc 94 bf
       -0.28504134323879043 -0.020371790070880438
0003b0 fa 55 51 b8 94 32 e1 3f 6b 35 ec 45 2d bc 75 3f
       0.5374244308429177 0.005306412552056865
0003c0 c0 ab 7d 0e 9b eb c8 bf b6 b9 69 ac a8 be b8 bf
       -0.19469011504710743 -0.0966592236452247
0003d0 fd 47 e5 6b 9b d1 c6 3f 02 5c ed 9c 11 b3 c4 3f
       0.1782717015108232 0.16171474611721243
0003e0 bb c8 af 49 b3 06 cb bf 5c 9e c2 b6 65 6e cb bf
       -0.21114197824460298 -0.21430655883635807
0003f0 42 96 97 fc f6 39 b7 3f 35 89 cc 7f 15 a7 cd bf
       0.09072822253036697 -0.2316614984529878
000400 c9 b9 b0 f5 37 ca ce 3f 75 85 71 2d f6 93 90 3f
       0.2405462217006529 0.01618942882885706
000410 f7 82 65 b9 05 39 c1 bf bd 7d 8b 79 f4 ae db 3f
       -0.1345526843315594 0.4325534045182982
000420 8a 80 61 54 4d 84 72 3f 9e 33 73 1b 5c 6b cf bf
       0.004520704335021839 -0.24546386089641897
000430 c2 da 4a 54 ba 4f c1 3f 03 21 cb 9b 18 3c c0 3f
       0.13524560085143916 0.12683398825743816
000440 c8 53 a5 c6 dc 7f e7 bf bb eb 01 64 2a ba bd bf
       -0.7343582038689584 -0.11612191144551691
000450 51 ca 3d 77 31 e5 b2 3f c4 16 90 fe 50 0b ba bf
       0.07380971108595104 -0.10173517432130114
000460 8e fb de 2d 3c bd d8 3f 87 5d ae 70 ba 15 aa 3f
       0.38654999236671805 0.05094702363492858
000470 06 41 87 d7 df 90 b5 3f fa 6e 45 3d 33 7a b9 bf
       0.08424185764238609 -0.09952087636832721
000480 c1 69 46 5c e3 c9 9c 3f 60 6d f2 d3 07 84 db bf
       0.028113892085096518 -0.42993350694606214
000490 a8 11 9a 4d e8 f3 ad 3f f0 2f 39 28 f0 84 cf bf
       0.05850149104392993 -0.2462444492724667
0004a0 9c e7 bf e7 74 3d de 3f 8d 0e ab 60 c0 e3 d4 3f
       0.47250101692008584 0.3264008468652058
0004b0 96 fd 59 17 76 d7 e5 bf 1c bf cb 5f 97 fa cd bf
       -0.682551427467774 -0.23420993974240722
0004c0 05 52 b4 9d cb f4 a8 3f 7e 86 b5 d2 0d c3 b0 3f
       0.04874264049627545 0.0654762877871011
0004d0 db dc 36 5e 5f fe b4 3f 73 97 aa b3 7b 19 c2 3f
       0.08200641679910652 0.14140268585941448
0004e0 4e f6 59 9e ee f7 b0 bf 4d a3 8d ed ac 23 d7 bf
       -0.06628314367295582 -0.3615524597030813
0004f0 7d 36 7a 44 87 7f d0 bf e9 98 59 e8 cb e1 89 3f
       -0.2577837151264715 0.012637703922518688
000500 de e0 49 22 e0 ae e0 3f c6 5b 26 3f d2 83 b7 3f
       0.5213471097659086 0.09185518304580773
000510 55 af e9 3e 1b 3d d2 3f 03 3e 76 3b 67 71 d8 bf
       0.28497964042502605 -0.3819215851480921
000520 9d 21 76 e9 0a 09 dd bf 42 31 ee d7 25 82 d1 3f
       -0.4536769180199601 0.27356859290081925
000530 3f 11 e7 fb aa 0f e5 3f 69 41 74 31 45 27 e0 bf
       0.6581625862095634 -0.5047937360668985
000540 45 73 e8 8f 64 ba d5 3f b1 31 8a cd 69 ff 91 3f
       0.3395015149451875 0.01757588688865192
000550 61 69 aa 88 82 c9 b3 3f 4e 73 d5 17 2e bd c8 bf
       0.07729354702533932 -0.19327331699141798
000560 e0 58 86 fc e0 d3 d9 3f e6 1c ea 0c 5a e7 64 bf
       0.4035570589125097 -0.0025517233655737324
000570 21 8f 69 cf 07 3c cc 3f 06 49 4f 87 d9 0f c2 bf
       0.2205819857364242 -0.14110869509620033
000580 c7 61 a3 41 95 9d d2 3f 47 48 78 ee fc 1d c3 bf
       0.29086810502988353 -0.14935266155277047
000590 2f d2 e1 3d 18 15 ae bf fa 09 b2 b4 41 25 d7 3f
       -0.0587546897449197 0.36164896627465704
0005a0 b9 1c 98 76 44 0a c7 3f 97 9e b1 6f b1 9c d9 bf
       0.18000083723766183 -0.4001887884864827
0005b0 c5 a2 ca d6 c9 ab cc bf b7 43 ff b5 bc 29 ce 3f
       -0.2239925669466826 0.235648716798577
0005c0 da 84 13 41 90 23 df bf 07 54 66 55 de d2 cd bf
       -0.4865456233511175 -0.23299769563587366
0005d0 a3 c7 41 f0 45 21 da bf 6a 83 d1 d3 37 9a d1 bf
       -0.40828083479493155 -0.2750377243556189
0005e0 16 bb 82 53 ad 49 cf bf 57 61 22 84 d1 fa da 3f
       -0.24443594529790208 0.42155874160518664
0005f0 a0 9a fd 0f 6c 76 b1 bf 3c 26 b7 a5 d2 e0 d6 3f
       -0.0682132281341219 0.3574720972361296
000600 2b 9e 9c 02 35 d3 d6 3f ba fc d1 4e f5 96 d6 bf
       0.35664105658585993 -0.35296375939646973
000610 42 19 0a 97 02 3c cc bf b0 85 f1 73 52 81 de 3f
       -0.22058136343930285 0.4766431934604851
000620 1e 19 45 43 fc 36 dc 3f a9 33 00 6c 39 18 d3 bf
       0.44085604256942357 -0.298353534192581
000630 49 2a d5 18 91 81 d8 bf b5 e0 16 5e d4 86 b6 3f
       -0.3829081289774519 0.08799483582595509
000640 07 74 ed 04 c1 f1 db bf ab 4d e1 3a 9d c1 dc 3f
       -0.4366304920311567 0.44931727170952723
000650 b3 25 3f 44 9c 71 a0 bf ee 8c 4b 52 3e fa e0 bf
       -0.032116778689281665 -0.5305472953154131
000660 6d 10 fa 45 f7 d3 a5 bf 1c 94 c5 6d 8c a1 d3 3f
       -0.04263279656609673 0.30673514099027144
000670 51 80 81 48 31 1b ad 3f 79 43 9f 1d fa 68 c5 3f
       0.05684808740693426 0.16726614424126376
000680 0f 80 49 50 71 12 c4 3f 10 19 3b 15 78 dc b1 3f
       0.15681282444256836 0.06977034109431579
000690 91 d0 c4 f8 6b e5 ca 3f e6 7b d7 00 d1 10 dd bf
       0.21012639662661006 -0.4541513927669584
0006a0 1f 68 86 55 8f 99 d0 bf 11 c6 e1 94 eb 53 d9 3f
       -0.2593725524144492 0.39574708499193983
0006b0 96 44 a1 ad 7a 1e da bf 1d 20 04 db 8d 8e a7 3f
       -0.40811030345964505 0.04600947664772568
0006c0 9f fe 19 78 42 38 d6 3f 6a 36 32 da 28 b7 ac 3f
       0.3471838162294975 0.05608489669348844
0006d0 93 f7 93 f6 d9 62 da bf 19 16 64 b0 8c f4 9e bf
       -0.4122834117878195 -0.030229757562684954
0006e0 65 a5 21 7b 07 15 dd bf 9d ab 98 d0 86 cb a2 3f
       -0.4544085218863841 0.036709034884857085
0006f0 b7 44 e5 95 c2 1c e1 3f 15 e6 09 a0 4c fc 74 bf
       0.5347607543609659 -0.005123423878666174
000700 bc b5 e9 ef 11 1a e3 3f 7e 0b b9 15 a5 31 db 3f
       0.5969323812293434 0.4249050819527652
000710 7d 3f a3 15 7a 72 aa 3f 0b 15 dc 75 37 58 bb 3f
       0.05165463937885215 0.10681482913431155
000720 52 84 d3 1f c4 fb b0 bf cf 39 37 10 1a c2 47 bf
       -0.06634164597518691 -0.000725043035737555
000730 f4 0d de d5 2d b6 e4 3f ec 81 09 ac 4d 07 b2 bf
       0.6472386529061951 -0.07042394113660294
000740 d0 b6 e7 9c a8 62 dc 3f bc 40 10 32 df e6 e0 3f
       0.44352164576308173 0.5281825998117919
000750 b0 01 e3 33 e9 05 82 bf fe 6c ee e7 cb 97 d0 bf
       -0.00880033673854616 -0.2592649235682102
000760 9a 9b 39 57 f3 97 e0 3f 41 03 2c cb 09 38 db bf
       0.5185486510862234 -0.42529530373581187
000770 89 8b 33 ea 41 e5 d3 bf 3d 4c 85 87 9e 69 e2 bf
       -0.3108677661058939 -0.5753929755104604
000780 a0 9f e9 94 a3 96 d3 bf 58 70 95 8b 79 3a 76 bf
       -0.30606927435155207 -0.005426859651688508
000790 48 e0 04 7f d2 18 c1 3f 12 80 48 75 82 e0 a4 3f
       0.13357001497365872 0.04077537233047236
0007a0 5f 2b 89 0c 3b 91 c7 bf ff bd 50 14 c7 ff a4 3f
       -0.18411958801365366 0.04101392863264763
0007b0 0f e4 86 4b b6 ac d6 bf 6c 5c 83 dd 6c 79 d0 bf
       -0.35429150939631965 -0.2574112094129706
0007c0 ef dc 69 48 9c ee c5 bf 45 0f 59 fa b6 a3 e2 bf
       -0.17134431396309632 -0.5824847116095745
0007d0 38 d3 c5 82 54 9c 4c 3f e6 a5 a5 5c b3 0c b6 bf
       0.0008731281900923099 -0.08613129627124003
0007e0 29 53 9f e4 e3 39 be bf ab c2 0a a0 60 01 c9 3f
       -0.11807083446121837 0.19535453619530094
0007f0 9b e9 0b 37 fa 1d b5 3f 62 5d 39 fc 4d bc d4 bf
       0.08248866886052612 -0.32399320250757146

conv2.bias f8 [16]
000000 00 00 00 00 00 00 00 00 00 00 00 00 00 00 00 00
       0.0 0.0
000010 00 00 00 00 00 00 00 00 00 00 00 00 00 00 00 00
       0.0 0.0
000020 00 00 00 00 00 00 00 00 00 00 00 00 00 00 00 00
       0.0 0.0
000030 00 00 00 00 00 00 00 00 00 00 00 00 00 00 00 00
       0.0 0.0
000040 00 00 00 00 00 00 00 00 00 00 00 00 00 00 00 00
       0.0 0.0
000050 00 00 00 00 00 00 00 00 00 00 00 00 00 00 00 00
       0.0 0.0
000060 00 00 00 00 00 00 00 00 00 00 00 00 00 00 00 00
       0.0 0.0
000070 00 00 00 00 00 00 00 00 00 00 00 00 00 00 00 00
       0.0 0.0

fc1.weight f8 [400, 256]
000000 23 b3 ba 32 53 8e b2 bf 89 60 5d 97 7a 5a a3 3f
       -0.07248420704372598 0.03779967401232038
000010 22 5c 4e 3f 59 06 b4 bf e2 b9 cb 56 d0 06 6b bf
       -0.07822187228735847 -0.0032991475221628578
000020 11 d8 ec 2a 53 6c be bf 16 df c5 6d b9 6a af 3f
       -0.11884040639856176 0.06136111702920581
000030 24 41 cf 93 65 9e b9 3f 01 f8 5b b0 42 2f c1 bf
       0.10007319315559876 -0.13425477610866213
000040 47 d1 c0 1a 9c 54 c0 bf 70 5b 66 4f 6c f8 b9 3f
       -0.12758208566959636 0.1014468854758499
000050 1c 23 c3 12 b4 09 cb 3f 02 be 50 4f 0e 30 bd bf
       0.2112336246120997 -0.11401452480708232
000060 e9 58 45 a4 bf 5f c4 3f 74 16 5c fa a3 9e a7 bf
       0.15917201539077233 -0.04613220626019379
000070 25 91 4d 4d 48 da b6 3f b1 4a b2 c2 bd 24 8f bf
       0.08926822554855514 -0.015206797126926604
000080 69 e1 06 2b 0b b2 c9 3f 88 34 63 aa c3 f9 c0 bf
       0.20074596024438598 -0.13262220210745945
000090 a3 db 00 09 1d 40 9d bf 36 17 c9 30 db ec c1 bf
       -0.028564885782738646 -0.1400407779894352
0000a0 b6 01 00 f4 13 61 b6 3f af 65 31 8d 1c 0f c7 3f
       0.08741879183799636 0.18014866728007692
0000b0 b4 1a fa 87 50 30 c1 bf 25 e3 0a 7b 0c f0 97 bf
       -0.13428694381237494 -0.0233766508197021
0000c0 37 d0 eb e1 84 c8 93 bf 31 b0 9c d1 d1 40 c3 3f
       -0.01931960705674404 0.15041563734973942
0000d0 ce a3 b0 62 5e 20 c4 3f d9 03 ca cd bc ab a8 bf
       0.15723781412932997 -0.04818525325845941
0000e0 25 3b 60 08 3f 78 a0 3f ef ff 43 ce ab ad be 3f
       0.03216740586514381 0.11983751092702709
0000f0 16 17 f9 0c dc 43 77 bf e1 f2 f7 f0 aa 42 c7 bf
       -0.0056799503068470005 -0.18172203794519873
000100 e6 d6 a5 6c 4d 5e c1 bf f2 59 73 f4 57 22 a1 bf
       -0.13569038205212464 -0.033465145673904476
000110 bd 37 d6 b9 aa 7d 9a bf a6 83 a5 e5 9a 59 c5 3f
       -0.02587000617273082 0.16679702962121928
000120 cf de 33 f8 9c 49 83 bf 85 61 35 17 49 c0 b1 3f
       -0.009417749714415362 0.06934029404272309
000130 64 94 a2 ee 3b 06 98 bf b8 49 b9 0c 03 a7 c4 bf
       -0.023461281242493817 -0.16134679909971594
000140 2d b1 3e 97 ba c7 a0 bf 2e 75 3c 01 ce 9b bb bf
       -0.03277381035090552 -0.10784614114932786
000150 45 97 f8 1a ad 44 b9 3f 9d 9d 52 20 cd e8 d2 3f
       0.09870416553948498 0.2954590621615923
000160 af 48 61 36 1f c3 a2 bf a3 aa bd 93 79 fb a8 3f
       -0.03664491213625475 0.04879360130765533
000170 c9 ee 8a 16 56 96 b4 3f 40 16 cb a6 e0 09 a3 3f
       0.08041894960745845 0.03718473468829275
000180 76 0b 02 65 32 8e ab 3f 78 d0 65 b6 7a 5b c5 3f
       0.05381925089843424 0.16685422807825367
000190 8e 1d 6a 64 a7 5a 90 3f fc 51 8e 93 11 94 b4 bf
       0.015970817092719573 -0.08038434841575531
0001a0 47 60 af 44 b0 d8 90 3f cb 01 88 b2 58 81 cf 3f
       0.016451601211741964 0.2461348411307099
0001b0 64 db a2 6d be 9a cb bf fb df 6f db 8a 0e b6 bf
       -0.2156599078495801 -0.08615939957951461
0001c0 77 60 16 c5 7f aa b5 bf 65 e4 07 01 7c 54 b2 3f
       -0.08463285981849987 0.07160162949721068
0001d0 98 5e 78 18 b2 3d a0 3f dd 66 db 96 be 5b 77 bf
       0.0317207007284967 -0.00570272873820851
0001e0 1e 36 11 56 63 91 c9 bf e6 ec 12 ac e1 0f 9c 3f
       -0.19974939062596858 0.027404333236273802
0001f0 a2 e5 bb 6e a1 5a b1 bf e9 20 f3 ca 2f 8f 8e 3f
       -0.06778916314569597 0.014921544438394512
000200 58 e2 0d b4 cf 98 bf bf a0 7a 1b f3 f4 b7 b1 bf
       -0.12342546602111193 -0.06921320853460111
000210 d7 54 67 25 f4 c9 b1 3f 6a b2 39 23 8b 48 c2 bf
       0.06948781884360088 -0.14283885211934272
000220 35 3c 60 98 69 ea a7 3f c0 4a 10 a1 b4 ea b8 bf
       0.04671030030305482 -0.09733132297723568
000230 03 a3 eb 5a 0a b8 c5 bf 1a 73 8b 4b 80 89 95 3f
       -0.16967896880603214 0.021032337771305178
000240 56 4d f3 99 98 29 be 3f c0 44 6b cd 1d 4f c0 bf
       0.1178222061019388 -0.12741444139695624
000250 e3 94 04 8c 0f 48 99 3f 9d 2e 75 64 7d 4b 95 bf
       0.02468895237065717 -0.020795783287481318
000260 77 58 62 cb ee ef 95 3f f6 30 aa 35 98 e2 b4 3f
       0.02142308346136487 0.08158255872894302
000270 41 9b 61 f2 81 06 b3 bf 63 ab 0f ec b8 a6 ba bf
       -0.07431804816733935 -0.10410648120129688
000280 42 e0 76 d9 0b 63 c2 bf 8e 93 28 61 77 d6 b9 3f
       -0.1436476528012936 0.10092874643357971
000290 c1 e5 9c 6a 92 41 c0 bf d7 6a 6a 8e 04 3a ab 3f
       -0.12700109677989072 0.053177015671470755
0002a0 f0 87 1a 75 ee c9 d1 bf 7a e5 6a a3 2d 71 c5 bf
       -0.27794991908933664 -0.16751642684338802
0002b0 2b 12 c9 08 b3 d5 b5 bf d4 7a ee 23 da c1 cd 3f
       -0.08529204334724542 0.23247839693518435
0002c0 51 27 aa 7d 11 93 c9 bf f3 3f e1 7a eb 8b b4 3f
       -0.19980066905946584 0.08026000738141174
0002d0 ba 3b 46 56 71 c4 9b bf 0f 41 0d 13 6f e5 bf bf
       -0.02711655701710545 -0.12459463324671936
0002e0 bb 21 44 e9 15 c3 87 3f 4f 7a 1e 80 17 50 60 bf
       0.011602564984529154 -0.001991315745683487
0002f0 42 c9 9c 39 ed 36 be bf 7e e3 ad 27 e0 bb bb bf
       -0.11802561432412964 -0.10833550423366309
000300 b4 4b 47 de cd 87 c0 3f ff e7 d2 eb 12 8d cd bf
       0.12914441445772484 -0.23086773409687564
000310 88 ac 22 f4 ac 30 c9 bf fc 20 c4 09 a1 a4 b4 bf
       -0.19679796143222839 -0.08063704002791278
000320 c3 2a f5 0b 8e f1 a8 3f 88 2a 71 67 bf b9 b6 3f
       0.048717917403867904 0.0887717845481949
000330 3b 5f d7 6f 77 26 71 3f e7 48 b8 13 cc 7b a2 bf
       0.004187075186074025 -0.03610074749680497
000340 b2 a3 0b c0 cc ae cd 3f c9 ef 1a 0b d6 3b b3 3f
       0.23189696671695753 0.07513177653430526
000350 37 28 80 7b 75 79 91 bf 13 28 91 8b db b3 b1 3f
       -0.017064891493682146 0.06915065915487188
000360 ca 0a df 9d ed a9 b9 3f 69 61 92 4a 43 f4 ce 3f
       0.10024914840964097 0.24182931081009976
000370 e9 94 35 f7 1d e1 bc 3f 08 71 90 50 1a 87 c2 bf
       0.11281001363166222 -0.14474801000404391
000380 91 9b b9 92 6f 9b b5 bf ee 7e 23 f5 51 53 b1 3f
       -0.08440301258234074 0.06767761454420526
000390 e3 00 9d 98 19 b6 ba bf 75 b4 d2 af 8a 58 a4 3f
       -0.10434112525854604 0.03973801990773832
0003a0 62 4f 84 cf ce 95 97 bf 32 c5 30 ec b1 74 b4 3f
       -0.023032409110853698 0.07990562454576347
0003b0 1e 4f 9f 94 ac b4 ac 3f 51 51 0f 80 e9 87 a9 bf
       0.05606593431698868 -0.049865052110961934
0003c0 bb d3 e6 a4 84 07 9f bf be cb 67 80 8f 8d aa bf
       -0.030302116932677352 -0.05186127130936978
0003d0 47 da fd 9b d0 75 a0 3f f7 47 8b 5a 8e 25 a4 bf
       0.03214885620302659 -0.039349030068151984
0003e0 d5 80 75 4a f8 b4 c3 bf cf 95 7c 9e e5 76 b2 bf
       -0.15396026263898102 -0.07212672347357983
0003f0 ae d1 c8 df b9 de b8 3f 84 b3 c8 4a a1 b9 c4 bf
       0.09714853013503585 -0.16191497947275135
000400 54 64 61 a5 75 37 cb 3f 75 00 6f 72 e0 a1 b7 bf
       0.2126299912950197 -0.0923137931231411
000410 67 67 64 da e2 11 a2 3f 91 df e0 a4 b6 c0 ab bf
       0.03529271045608944 -0.05420466196704788
000420 62 22 7b 96 4b 5d b2 bf 26 13 6a 3a b6 af a1 3f
       -0.0717360727677572 0.03454369986596921
000430 2c ed 23 52 2c 07 b8 3f 37 dc 38 00 04 1a bc 3f
       0.09385945325259532 0.10977196698591817
000440 b9 8c 28 3f e2 3c bc bf 78 7d 72 9d 1d 2c 80 bf
       -0.11030401269867952 -0.007896643988998461
000450 56 33 a4 03 2f b7 c0 3f e7 af 64 f2 d1 a7 ac bf
       0.13059032132914677 -0.05596786579039286
000460 d7 35 5a 14 17 d8 a9 bf cb 7e ca d3 e0 84 b0 3f
       -0.050476762041494254 0.06452756090811389
000470 7d 74 00 a4 aa 33 8c 3f f4 e3 13 0f da 11 b8 3f
       0.01377042115205484 0.09402239673717344
000480 c0 93 0b 2b aa cb c3 bf 0e c6 fc 7e 05 a6 8b 3f
       -0.1546528539830927 0.013500254571769534
000490 d4 1e 60 53 c3 8a c4 3f 6a cb 33 54 34 4d c0 3f
       0.16048471041744128 0.12735609160844358
0004a0 6b c8 22 78 64 a6 9f bf 8d 07 b3 6c 86 31 c4 bf
       -0.030908174355041156 -0.1577613859899966
0004b0 7d 23 a5 ef 42 60 d3 bf b5 dd 81 97 ab a9 c2 bf
       -0.30275033381308686 -0.14580292604271752
0004c0 49 0f 2b b5 51 47 b2 3f fd 43 61 ba fb 03 c0 bf
       0.07140074418117338 -0.12512156105597674
0004d0 01 68 3c b5 ac 67 b8 bf c6 c3 83 d4 0a 93 c7 bf
       -0.09533194946962455 -0.18417487503714208
0004e0 09 91 fa f1 70 f2 b3 bf e0 44 3b 5d 48 9c c2 bf
       -0.07791810901341391 -0.14539436867065714
0004f0 27 e9 d0 f4 8f e4 a9 bf b0 cf e0 ce b0 cf 8b 3f
       -0.05057191718556658 0.013579732240124404
000500 c8 66 5a 08 4f c0 b9 3f cb 39 7e bb 01 51 b5 3f
       0.10059064821180208 0.08326731517283929
000510 2c 54 f1 53 e8 61 a8 bf 9a 25 d7 94 93 c6 c2 bf
       -0.04762197518054054 -0.14668507354353438
000520 c6 90 6e 7e 93 e9 c7 bf 1f c2 56 dd 53 d8 be bf
       -0.18681567834312868 -0.1204883971574948
000530 4e bf 38 74 d0 60 c6 3f 16 ab 14 54 d9 35 bc 3f
       0.1748295371521586 0.11019666960480054
000540 fc 27 11 db 44 fb 75 bf e4 87 ea 23 68 d4 c9 bf
       -0.005366581886002916 -0.20179464105336742
000550 aa 7c 7e f5 ba 8e aa bf 54 88 48 dc ed 02 b7 bf
       -0.05187019583467507 -0.08988844516764632
000560 81 d9 96 f2 5b 23 d3 3f 00 6f 0e 16 d1 a8 c4 bf
       0.29903315248829904 -0.161401878137319
000570 e1 e9 30 e6 36 e7 c8 3f dc f1 af 50 cb 73 c9 bf
       0.19455610503958012 -0.19884625854309845
000580 f2 80 bf d7 a6 27 53 bf 0a e8 bb eb d5 c9 d0 3f
       -0.0011691216777692218 0.2623190691080032
000590 3b 80 42 38 02 9e c9 bf ac 6c e2 3c 43 44 ae bf
       -0.20013454196032562 -0.05911455267161023
0005a0 70 77 b1 ef 9d a8 bd bf c4 91 c1 55 11 80 b6 3f
       -0.11585414029965846 0.08789165824561623
0005b0 07 a0 33 ca a7 1d b1 3f aa 0c 6a b8 7c 33 88 bf
       0.06685875593723277 -0.011816954019428689
0005c0 da 3b 27 8d c3 1c c7 bf 54 8d f1 fc c9 44 c7 bf
       -0.18056530372856977 -0.18178677416572475
0005d0 e4 cf 4c f0 ed 61 cb bf e6 78 f2 4e b7 f5 b5 3f
       -0.21392606957817784 0.08578057935162384
0005e0 c2 9f d4 c6 79 7f aa bf e0 80 1e 28 a6 15 60 3f
       -0.05175381233340161 0.001963448071322302
0005f0 ba 2c aa 69 f9 38 a2 bf 09 bc bb dd f4 e0 c5 3f
       -0.03559092917301983 0.17092762781928197
000600 8b 8a 42 05 bc 27 96 3f bb b6 90 e9 88 7a b5 bf
       0.021635949917831836 -0.08390098287847085
000610 dd d8 bf 03 ab 7d cb bf 0c b4 72 b2 67 47 b5 bf
       -0.21477258380008993 -0.08312080485002599
000620 86 cd bf d2 69 12 a6 3f 10 15 cc 9d 0a a5 ba bf
       0.04310923287985262 -0.10408083298178306
000630 c5 29 ac 64 7a e7 7a bf 53 54 11 83 01 bf b9 bf
       -0.006568410967484122 -0.10057076883215758
000640 d7 ec 64 da 99 d9 b2 bf 8b a6 24 6d d6 ec a2 3f
       -0.07363282758608435 0.03696317751230279
000650 6a 57 c9 6e b3 93 69 3f 91 64 3e 08 c2 09 b5 bf
       0.0031221870943153778 -0.08218014432204003
000660 61 ec 46 a0 b4 94 bf 3f 25 19 cd e0 c1 28 64 3f
       0.12336281693471697 0.002460840862485674
000670 35 cf f3 d2 0d 18 a6 3f 81 fa dd 92 9f e1 a3 bf
       0.043152267457030304 -0.03883074443637203
000680 77 06 9b 0f c3 0f 83 bf fb fa 85 27 4b 99 98 3f
       -0.009307407296890375 0.024022268569292553
000690 fe aa e9 3a 18 b8 b6 3f 3c 9a 1d 39 4e f5 a6 bf
       0.0887465614156717 -0.04484028289043748
0006a0 24 1d 48 d5 c2 4d 83 3f fa a3 72 9a ff 20 ac 3f
       0.009425661214676646 0.0549392581973009
0006b0 2d 06 d6 b7 2d 32 c2 bf 9e 33 c4 5c bc 55 c1 bf
       -0.14215632892960298 -0.13542894868478766
0006c0 f8 1e 2a a0 11 cc b5 3f 49 e3 12 5b 65 71 c0 bf
       0.08514509353892297 -0.12846056887590354
0006d0 a8 6c 15 d6 34 3e b1 3f 51 98 01 b4 72 bf c0 bf
       0.06735544420864648 -0.13084253110281677
0006e0 0d 37 93 fe a0 ad b4 3f 3a 4c 52 23 b8 c3 b4 bf
       0.08077436652385135 -0.08111143934574808
0006f0 2c 8f 2f 12 ab d4 a4 3f c3 02 f3 2a 59 6f cc bf
       0.04068502995485654 -0.22214808079845313
000700 ba 4c 7d af 6b 97 71 3f 2b ab f9 00 34 89 9e 3f
       0.004294796606546908 0.029820263442540778
000710 58 b6 1d fb 8a 27 96 bf 01 be aa 98 a9 52 67 bf
       -0.021635219170482806 -0.002847033732301219
000720 ef 31 ca d1 1e 7f b5 bf ac 10 fe 04 32 fa b2 bf
       -0.08397095319578061 -0.07413017866025723
000730 3d 45 cb 73 5c 32 b1 3f 88 e1 dc c3 fb e5 b0 3f
       0.06717470004084176 0.06600926906401672
000740 73 be 3c 44 39 b9 a1 bf 9b d6 17 d7 74 35 a2 3f
       -0.03461626966452238 0.03556409001968782
000750 7b e8 0b 5d a6 ad 90 bf a0 ee 45 2f 5d f2 ae 3f
       -0.016287421635731363 0.06044284059586613
000760 4d 90 57 75 e7 57 cd 3f fe 57 83 12 fe 1c bf 3f
       0.22924512128440924 0.12153613998393095
000770 c0 2c f9 a2 6d e3 95 bf b4 c1 fd 44 a8 09 ca 3f
       -0.021375382492163864 0.20341971749031773
000780 30 d0 c9 6f 80 6a 9f bf e1 8a cf 4d bc b3 bd bf
       -0.03067970926572644 -0.11602379703212364
000790 cf df 1b df 73 e7 b0 bf 63 25 b2 27 a5 ec b7 bf
       -0.06603168675417169 -0.09345466822755592
0007a0 2b 59 46 f9 37 b5 ba bf 60 87 e0 a8 46 88 44 3f
       -0.10432767711458683 0.0006265969293546107
0007b0 fc 5f 72 f1 05 01 a0 3f 76 3f 4a 8c ff 61 94 3f
       0.03125780651424745 0.0199050835968246
0007c0 b4 2d 2e 38 ad 14 cb bf 01 bb eb 7b c3 0b cb 3f
       -0.21156850093062263 0.211296496875967
0007d0 c3 1c b7 c9 65 a2 71 3f 28 cb 0e 84 45 87 b2 3f
       0.00430526505392165 0.07237657999102665
0007e0 36 a7 2d 81 a9 7e b3 3f 2a 27 bb 86 ed c0 ae bf
       0.07615146068351639 -0.06006567258516633
0007f0 4a 28 14 6a 83 1a 1c 3f f6 0e a3 26 38 25 bd bf
       0.00010720660295163265 -0.11384917205128517

fc1.bias f8 [1, 256]
000000 a4 2f 94 ee da 6c 6b 3f 4c 55 1d 64 c5 1f 89 bf
       0.003347804643118084 -0.012267629735712625
000010 bc b9 f1 7c bf 26 75 3f 3f 19 4d d6 41 53 92 bf
       0.005163906097648437 -0.017895725922494107
000020 68 e6 94 1c 5e 63 70 bf 06 56 f0 b6 19 5b 5c bf
       -0.004001014350529887 -0.0017307044142901309
000030 ac 81 ff d0 13 55 7b bf 4d 93 88 b7 bf 70 96 3f
       -0.006672933013732434 0.02191447789859362
000040 21 6b 24 58 f4 a8 8c bf 43 5d 6e 48 c8 40 61 bf
       -0.01399413007725553 -0.0021060859466605366
000050 6a bc 0d 60 7c 77 4f 3f a6 42 cb fe 32 69 97 bf
       0.000960288744051752 -0.02286224060191224
000060 25 52 7e 2d 3d 2a 81 3f e9 7b d0 34 76 33 81 3f
       0.008381345702027929 0.008398936735884948
000070 48 cc c3 26 b0 7e 80 bf ab 64 cb 56 a4 6a 8a bf
       -0.008054138358124643 -0.012898715876348573
000080 b3 fb 8f f2 5a df 85 3f 00 00 00 00 00 00 00 00
       0.010679922606866876 0.0
000090 ea 50 f1 31 75 31 88 3f b1 7a 5b 19 7e 5f 81 bf
       0.011813083254459806 -0.00848291888126815
0000a0 a1 06 2e 1e 23 77 93 3f 58 c7 42 b3 fd 7f 8e 3f
       0.019009159771946064 0.014892560990435719
0000b0 f2 47 d2 cd a7 68 7a 3f 79 94 df fe c4 d3 84 bf
       0.006447463497481808 -0.01016954329311147
0000c0 02 44 6e 6b 6f e2 8a bf 25 3c 25 b9 db 8d 57 3f
       -0.013127203432107496 0.0014376302466023807
0000d0 3a e8 b6 84 40 59 90 3f 21 19 5b 39 61 e6 88 bf
       0.01596546945595654 -0.012158164561139774
0000e0 fd 94 1b e4 ec a6 97 3f 02 4a 69 98 a4 82 75 3f
       0.023097707197753604 0.005251543951617867
0000f0 91 38 5d e7 a5 02 92 3f be 7c 68 0b 9d 64 99 3f
       0.0175882265532939 0.02479787237291186
000100 b1 82 28 41 1f 6e a1 3f 9b 86 c0 7d 24 7e 61 3f
       0.034043289855849486 0.0021353447646255803
000110 bb 4d e2 f9 bb eb 97 bf 72 62 6c b2 91 aa 79 3f
       -0.02336019241972818 0.006266183022284199
000120 be d1 2d 25 3a e1 85 3f ca d0 45 0c 1a 54 8b 3f
       0.010683492908108213 0.013344005107434848
000130 1c a3 b6 d7 f0 b1 87 3f 56 fd bd 32 d9 2b 8b bf
       0.011569863875438062 -0.013267227993991309
000140 32 fb 5e 9f f5 34 7a 3f e5 1a 64 71 ec df 8d bf
       0.006398162329729827 -0.01458725663225153
000150 4f e0 d2 f3 27 e1 76 bf b2 14 f7 8d 02 3a 7f 3f
       -0.005585819305615371 0.007623682001797126
000160 54 e7 49 b2 32 31 69 bf ea e6 6e d2 f3 15 75 bf
       -0.0030752172627303374 -0.005147888593393305
000170 35 c6 84 7a aa ab 95 3f 95 a2 f2 e7 8b d4 9d 3f
       0.02116266606134883 0.029131113082856947
000180 4d 9e 50 4e e4 45 44 3f 00 00 00 00 00 00 00 00
       0.0006186833167065115 0.0
000190 26 7d d1 1c f8 0d 81 bf f0 8d 83 f5 aa f9 8c 3f
       -0.008327425364937979 0.01414807855366626
0001a0 e1 9f 6b e8 7e 79 90 bf ed 7f 30 93 9c 14 60 3f
       -0.016088469444099366 0.0019629533867515565
0001b0 a6 b0 df 16 17 d4 85 bf 69 b9 30 2c a3 e1 91 bf
       -0.010658436189224862 -0.017462300846255916
0001c0 c4 65 95 b5 6e 51 99 3f 21 fe a0 f4 94 ff 74 bf
       0.024724702675802637 -0.005126554353466457
0001d0 50 00 92 6a 34 84 0d bf dc d1 99 3b 3a a2 73 3f
       -5.629811250518256e-05 0.004793384048401763
0001e0 57 a3 42 a6 22 35 8b bf dc d2 02 f9 ed eb 91 bf
       -0.013284941386091082 -0.017501562426974412
0001f0 d2 e3 d6 90 7f 54 84 3f 45 dd cf 77 98 b7 92 3f
       0.009926792724273801 0.018278486550085366
000200 a8 02 ed 67 e3 cf 8f bf aa 3a 65 d7 9f 9b 8a 3f
       -0.015533234223427186 0.01299214244923282
000210 48 8b c1 1b 88 f3 80 3f 42 d0 ae 1c 70 b7 74 bf
       0.008276999804541454 -0.005057752549806395
000220 51 e5 e2 f5 53 61 69 bf 6f 71 fe 57 16 5f 95 3f
       -0.0030981674054514703 0.020870541687700802
000230 96 e8 c9 32 81 9c 84 bf 6c c3 8f d2 80 fe 80 bf
       -0.01006413398976162 -0.00829792635519918
000240 61 06 52 8d 8f 49 69 bf b8 0b 7a 36 85 25 59 bf
       -0.00308683431154648 -0.001534824457764412
000250 e4 10 46 a6 35 94 95 3f ab d4 4d 4c ad d1 9e 3f
       0.021073187135258645 0.03009672907088105
000260 ed 87 74 4e 57 2e 8c bf 4c 7b 6c f7 5b 4b 98 bf
       -0.01376026352096812 -0.023724972702548627
000270 1f 53 88 7c 61 b0 6b 3f cd e5 5a ce 7b 5f 94 3f
       0.0033800033600165503 0.0198954910945071
000280 76 38 4b 8f fe b8 82 bf 2f 7d 2e 4a 67 54 8b bf
       -0.00914191126630846 -0.013344580603926374
000290 54 e0 7a a4 af f7 4b 3f 67 a2 93 cc a4 a3 97 3f
       0.0008535010938066725 0.023085188852663665
0002a0 58 86 e6 6a 4b 76 8c bf 33 2a 07 e7 aa 5b 65 bf
       -0.013897504043430306 -0.0026071870745216995
0002b0 02 8a fa 12 98 61 88 3f 31 03 1e aa 3d 0f 7c bf
       0.01190489585798549 -0.0068504723329859
0002c0 08 ef 3f 71 64 29 90 bf 0c 8f ab 8a 67 ec 69 3f
       -0.015782899296012537 0.0031644842432444528
0002d0 fa 17 7a 60 25 a3 8a bf b1 7d f7 f0 96 5f 9c 3f
       -0.01300648880647869 0.027708395440525006
0002e0 66 a5 82 ca b3 51 83 bf 26 66 ef 8d 83 a7 81 3f
       -0.009433178537011155 0.008620288628594496
0002f0 40 7c 9d 4d 12 d8 a8 3e 10 08 c1 51 f6 ff 79 bf
       7.404097701438722e-07 -0.006347620186774719
000300 59 18 13 b1 39 51 93 3f 25 3f 71 b9 86 f4 82 bf
       0.01886453765180138 -0.009255459341289527
000310 00 00 00 00 00 00 00 00 07 2f 20 b1 26 75 85 bf
       0.0 -0.0104773543171386
000320 65 91 a8 cb 3f 07 77 bf b1 90 8f cd 65 6c 88 3f
       -0.005622147752124417 0.011925502143590757
000330 88 da dc 66 73 d4 79 3f 27 0c ed 4d ed ef 8c 3f
       0.006306124485311877 0.014129499378787781
000340 15 24 42 00 86 45 90 bf 5d 5e 1f ea f1 87 86 bf
       -0.01589021088196681 -0.01100148196921607
000350 f2 28 cf ef ea 2f 83 bf 6d f0 1f 57 46 58 3f 3f
       -0.009368739550968706 0.0004782840470622999
000360 46 e3 1d 3f 02 3a 88 bf 22 9b 51 1c ee f8 68 bf
       -0.011829392958803486 -0.003048386630826087
000370 70 2c 96 b1 77 7f 89 3f bf 1e 8a 20 52 c4 76 bf
       0.012450156313908972 -0.005558319863332605
000380 65 e9 4d bb 76 a1 84 bf 79 ae e6 43 1a 85 99 3f
       -0.01007359274966708 0.024921808618883354
000390 1f ff 41 f8 e3 2b 6b bf bf 19 9a d0 c2 d8 3b 3f
       -0.0033168270620648334 0.0004249072668262264
0003a0 62 f9 eb f1 d1 d3 4e 3f a2 5c c7 b7 96 f9 91 bf
       0.0009407782671074056 -0.017553667990651285
0003b0 6e c7 cd 78 e4 b7 8c bf 1b 54 20 c1 82 47 90 3f
       -0.014022622048034807 0.01589779189824379
0003c0 c2 50 7f 48 06 26 69 bf 92 b2 bf 24 74 ad 8e bf
       -0.0030698893278700854 -0.01497927415035719
0003d0 43 d9 17 3f ef de a0 3f 1c 3b d2 86 39 9a 80 3f
       0.03295085568599856 0.008106660296360917
0003e0 c9 84 ad dc 0f 12 65 bf 6e fe 00 d7 f8 21 78 bf
       -0.0025720891766672677 -0.005891773253153694
0003f0 7e b4 40 59 8c 12 90 bf 86 99 a5 4e 38 fd 93 bf
       -0.015695755908542434 -0.019520644951080544
000400 3e 71 81 2a 7c 57 82 3f b9 94 36 89 7d cb 4f bf
       0.008955926940125477 -0.0009703028649040913
000410 87 bb 8f 5e f5 d6 71 bf 92 4f 36 b7 a7 1b 68 3f
       -0.0043553910008843405 0.0029428744980552557
000420 19 68 be 7d 36 f8 6b bf fa 11 52 5e fd e5 6b bf
       -0.003414255550478817 -0.0034055660822238628
000430 00 00 00 00 00 00 00 00 b8 d7 20 6f 4c db 77 3f
       0.0 0.005824373789485131
000440 e8 49 66 9e 5c 2d 83 bf 62 f2 2c 0a f6 b9 79 3f
       -0.00936386450192557 0.00628086194302266
000450 b3 5a 62 b0 05 1b 7a 3f d4 ae 3b dd d4 18 85 bf
       0.006373426649722336 -0.010301268579005741
000460 77 38 7b 99 26 c0 92 3f bb a3 c2 d0 6e f8 77 bf
       0.0183111220529146 -0.005852158425263927
000470 fd c1 04 d0 08 49 72 3f d3 76 02 26 05 3a 7f bf
       0.004464182304488859 -0.007623691664915905
000480 0d 0d a0 05 73 8d 71 bf b5 c1 57 f8 45 80 7b bf
       -0.004285287193855025 -0.0067141278463939595
000490 e5 a0 8c d1 b5 1e 87 3f 1e 6c 5a 0a d9 5b 8f bf
       0.011289043862760592 -0.015311904552893604
0004a0 cb d2 4b fa e0 00 80 bf fc fb 8b 8c c6 f3 5b bf
       -0.007814176214631449 -0.0017060698466477833
0004b0 fc 4c da 7a 8a 84 82 bf af 8b f9 f6 d9 dd 7c 3f
       -0.00904186427513886 0.007047511505876721
0004c0 c2 f4 13 d0 e2 4d 88 bf 80 20 3d a1 e9 e4 77 3f
       -0.011867305731806947 0.005833542458113183
0004d0 54 8e b7 90 20 95 7f bf ce 7a 64 b1 52 9d 81 bf
       -0.007710578163343824 -0.008600851095761721
0004e0 d4 a1 fe 88 6d a1 80 bf 32 ca da 35 0c f7 7d bf
       -0.008120399230237142 -0.007315681168324194
0004f0 a7 b2 a6 04 a6 ea 86 bf 21 c4 8b 9a 0d a1 90 bf
       -0.011189744011823889 -0.016239368970620064
000500 b0 69 14 c4 eb 37 7d bf 43 98 89 7b eb 31 63 bf
       -0.007133408508958203 -0.0023431395787154876
000510 cb 01 5e 35 24 64 68 bf 77 9e 95 72 a6 f8 54 bf
       -0.002977438659343278 -0.0012799859490203716
000520 17 c9 3a de c9 b9 8f 3f 85 63 3a 71 e0 38 71 3f
       0.015491082281503794 0.004204632499431042
000530 62 04 91 74 c8 39 97 bf bb d1 e6 d4 ab f0 72 3f
       -0.022681362261441136 0.004624053208705121
000540 a7 47 51 cf ae 8c 55 bf 32 d0 d9 5a 1e 61 87 bf
       -0.0013152796866688716 -0.011415707728907962
000550 42 f8 f6 0b 4f 1a 94 bf 50 fa 43 f7 4b 17 7e 3f
       -0.019631610017079255 0.007346436254236879
000560 76 59 72 32 bc 00 38 bf b2 e0 64 61 02 fe 8b 3f
       -0.0003662547555419929 0.013668078038435592
000570 9b b5 de bf 47 ba 7b 3f ec f3 64 c1 b2 d6 7d bf
       0.006769447585538125 -0.007284830344642206
000580 c1 ab 4d 59 8d ea 91 3f 58 4b 5f 09 63 e9 72 bf
       0.017496307922026725 -0.0046171063058462955
000590 b7 df 68 5b b5 c3 7f bf 7f 11 28 5f ab 12 69 bf
       -0.007755001474428916 -0.003060660086022959
0005a0 8d e6 55 8e 1d be 87 bf 09 72 13 0f c2 f0 8d 3f
       -0.011593085199581377 0.014619365773278952
0005b0 f5 c5 b3 94 1e 4d 6d 3f 34 5e b9 fb 0d 09 6c bf
       0.003576812484987308 -0.003422286330344604
0005c0 d4 0f a5 30 eb 46 84 bf fd 5c ea 28 63 14 87 bf
       -0.009900891706486371 -0.011269354520932579
0005d0 da 08 2c a3 13 80 8d bf 97 29 24 4e 51 28 96 3f
       -0.014404443184961858 0.021638174433101644
0005e0 72 c0 d3 5b b9 8f 92 3f 3a f6 bc 20 fe b6 6b bf
       0.01812638876884915 -0.003383156150362135
0005f0 6f c5 67 c7 14 e2 7d 3f c0 78 ed 27 15 99 40 3f
       0.007295685928043623 0.0005065301228162275
000600 27 d9 dc 65 d8 23 90 3f bf 0d 38 fd 2e 0b 71 bf
       0.015761738984303577 -0.0041610560906550345
000610 e8 65 0b 8c d7 d4 62 bf af 2a eb ea d8 38 85 bf
       -0.002298756590204166 -0.010362333935878125
000620 ea 87 eb 35 72 5f 87 bf f6 e1 b9 cc 61 26 97 3f
       -0.011412517805585016 0.022607353325357203
000630 ff b6 57 24 12 cd 83 bf 92 66 bf da b8 b5 8e bf
       -0.009668485387887225 -0.014995044875763672
000640 85 c1 35 c5 8a 5f 97 bf 00 00 00 00 00 00 00 00
       -0.02282540157961101 0.0
000650 10 fc 87 dc d8 3f 82 3f 97 a6 8a 4a 11 92 4d bf
       0.008910841207578485 -0.0009024223737316869
000660 25 4c bb 95 23 7c 93 bf f4 34 54 45 c8 5b 9a 3f
       -0.019028240217107268 0.025740746718885668
000670 c4 80 d6 3c 41 e8 92 bf de 72 c7 67 29 f6 66 bf
       -0.01846410688233459 -0.0028029259394613945
000680 94 98 19 4a 34 3d 8a bf bc 69 0f 62 19 c5 68 3f
       -0.012812050353385986 0.003023671699776657
000690 64 99 85 b5 08 01 46 bf 23 16 4e ff 63 12 87 3f
       -0.0006715099835162106 0.011265546063223891
0006a0 6b 39 a4 d9 86 98 78 3f 64 bb 40 37 93 36 70 bf
       0.0060048358520944185 -0.003958296834794737
0006b0 c1 2c b7 c7 e7 15 89 bf 9b dd 1c 64 17 bf 71 bf
       -0.012248812467893779 -0.004332629557942803
0006c0 e7 2c 6c 46 69 1e 64 bf 34 5f e4 ab d6 08 79 3f
       -0.0024559074548783258 0.006111944733014064
0006d0 00 00 00 00 00 00 00 00 36 2d 3e 28 55 d4 7a bf
       0.0 -0.006550152440364434
0006e0 61 9f f6 74 70 8e 74 bf 93 ca 5f 19 d1 5a 63 3f
       -0.005018653187484152 0.0023626407591959635
0006f0 0b 1f d3 bc e1 ad 81 bf 90 9a 1b 37 b8 43 65 bf
       -0.008632434439632705 -0.0025957677797692827
000700 24 37 e6 3a 75 08 90 3f 88 fe 55 d4 0d 38 86 bf
       0.015657264442373933 -0.010849102060773733
000710 0f c1 f3 2e de c2 84 bf ac a7 ee 45 5d 39 8f 3f
       -0.01013730603014598 0.015246132561362057
000720 a0 3d 17 a4 2d fb 86 3f 69 d5 86 24 53 73 70 bf
       0.011221272058633158 -0.004016232277014844
000730 b0 e6 66 b6 68 70 43 bf 0d 35 99 b8 5a 43 8e bf
       -0.0005932341853657954 -0.01477690578317461
000740 4f 6b 3a fc bb 17 98 3f 70 e4 7e 3a ba 37 81 bf
       0.023528039235866157 -0.00840707293524387
000750 dd c1 5f b4 36 95 83 bf 7f a5 7c ff ef a4 8f bf
       -0.00956194627721712 -0.015451312050191344
000760 8f 9c bc 10 d4 ff 86 3f be d3 30 93 6a c4 9d 3f
       0.011230141411557674 0.029069581254777203
000770 3a 84 42 d0 c3 18 60 3f 99 46 c8 77 b2 1b 80 3f
       0.0019649338228906717 0.007865328102556733
000780 bc 11 cb 50 d7 4f 7f bf c2 3c ef 4f 26 21 91 bf
       -0.007644501759106633 -0.016728018406692476
000790 91 44 e5 66 c3 2d 84 3f 5d 58 3c 8a 91 33 8f 3f
       0.009852911546348405 0.015235077887649046
0007a0 a9 ea 94 6a cd 7b 5f bf bd 4f 9b 7e eb 0e 7c bf
       -0.0019216066378492747 -0.00685016622601958
0007b0 00 00 00 00 00 00 00 00 8c ef 7d f2 18 23 6c bf
       0.0 -0.0034347045183817423
0007c0 83 50 18 fa 53 91 52 bf 31 67 9b 71 cc 45 9d 3f
       -0.0011332817160836512 0.028586573061011925
0007d0 79 44 a0 d3 06 19 82 3f 25 ee f6 d8 9a d3 66 3f
       0.008836797078432422 0.0027864479413588655
0007e0 64 35 0d d6 14 57 83 3f 44 d2 da 06 e9 15 57 3f
       0.009443438322387983 0.0014090324070085295
0007f0 c4 f6 44 45 c6 0c 8a 3f 6d 1f 62 f7 8b d1 5c bf
       0.012719677914556533 -0.0017589442118452717
