examples/mnist/checkpoint/model.npz (npz, 815670 bytes, 8 tensors)

modules/net/0/parameters/weight f8 [6, 1, 5, 5]
000000 ff 77 6e 21 b1 74 e9 bf a6 7e f9 64 b8 9b e9 3f
       -0.7954946186980577 0.8002588245544373
000010 e9 04 73 b4 0e 89 d2 3f e0 d5 7c f5 4e 22 c9 3f
       0.2896153223228582 0.1963595102949247
000020 4a 3d 67 9e 3b e1 a6 3f 18 04 f0 35 c6 fb e5 bf
       0.04468714054712082 -0.6869841626613633
000030 8f a3 e9 7b 72 a5 cf 3f 29 4a ba 76 c6 36 c4 3f
       0.2472365479509588 0.15792160794497193
000040 d6 a0 c8 15 60 ee 98 bf 11 17 ce 1b 88 8f c7 3f
       -0.024346829728671825 0.18406773908298438
000050 72 18 bb 51 f1 65 cc 3f 7e 4f f5 cf 4d 36 d9 3f
       0.22186104288829572 0.3939394503442982
000060 49 59 b4 b5 10 fe d8 3f 39 8c 14 b9 6b 6e e0 bf
       0.39050691361025663 -0.5134791006897849
000070 99 40 82 06 0e bd d5 3f 95 97 4d 26 e6 64 be bf
       0.3396639884531481 -0.11872709689268242
000080 65 1d dd 81 01 48 e1 3f ff ec 50 c3 1a 54 f0 3f
       0.5400397812272045 1.0205333356414596
000090 d3 f0 fb 98 24 e3 8c 3f 65 a8 df a3 03 1c ca 3f
       0.0141051158129745 0.20397992612498964
0000a0 96 7d ee 11 70 99 b7 bf 92 31 f4 62 f2 68 af bf
       -0.0921850246218042 -0.06134755571301577
0000b0 94 b5 60 5f b6 5f ca bf 10 8c 2a 53 a6 b0 ba 3f
       -0.2060459104263087 0.10425796060967252
0000c0 d5 01 6e 1b 2a b8 da bf 0e 9d 93 f7 ac 37 d1 3f
       -0.4174905078762355 0.26902317216304616
0000d0 cf bb 7d c3 ad 9a c7 bf 78 d4 58 a9 f8 53 d8 3f
       -0.18440792127100145 0.3801252034930438
0000e0 fa 7e bc bc 7b da ca 3f de b1 b9 e7 89 e8 e0 bf
       0.209792582661059 -0.5283860708128107
0000f0 25 b4 d9 ed f9 1b e4 3f 00 a6 15 c3 24 a3 ee bf
       0.6284150739207958 -0.9574149904485125
000100 a5 c7 9d f7 91 b8 b7 bf e1 00 e3 cd da cc e1 3f
       -0.09266006751366136 0.5562566777444112
000110 46 6d c9 e6 a6 26 ec 3f a8 c3 f8 92 46 0c c7 bf
       0.8797182567172193 -0.1800621240268161
000120 8d 3e b3 6b e2 be c3 bf 78 88 23 b7 ba 3c ce 3f
       -0.15426283129498977 0.23622831289600632
000130 42 15 dc 62 97 89 c7 bf 3a 5b 40 fe 4f 48 b9 bf
       -0.18388645484098204 -0.0987596507769525
000140 34 b1 65 5f 55 52 d5 bf 47 e1 2a a9 49 06 b1 bf
       -0.3331502372373223 -0.0665021932608215
000150 4f 46 aa 17 1f 56 d4 bf c5 ed 01 b0 c0 7c a3 3f
       -0.3177564364533269 0.03806116245774719
000160 83 65 b6 e3 c5 84 d2 3f 8d 17 34 d0 34 4f e2 3f
       0.28935382115886216 0.5721687380289368
000170 00 88 ab 69 cf c8 ba 3f df 9d 9f 0c 0d 43 c3 bf
       0.10462662057719285 -0.15048373333341566
000180 6a 00 ac f6 e2 07 de 3f a7 5d bb 9b 2f df db 3f
       0.46923135842371855 0.43549719055359976
000190 2b a1 8c 2f e6 92 de bf bf 3a 2d 8c 28 37 c5 3f
       -0.47771601336946173 0.1657458004433092
0001a0 90 1c 64 20 b7 dc ed 3f 02 fb d9 2c 8d bf 9a 3f
       0.9331927902830035 0.026121335852162815
0001b0 e5 f5 b9 61 64 0d e1 bf e7 7a 2e f5 9d 01 db 3f
       -0.5328847798079407 0.4219736952162933
0001c0 55 9f 9d d3 1a 3f b9 3f c2 59 ea aa 4e d1 d4 3f
       0.0986191527023242 0.3252751034828202
0001d0 fb 05 5e 99 ba 65 df 3f fe 44 8d 69 3c 9a d6 bf
       0.4905840394713718 -0.3531638174800519
0001e0 4a 60 3b 95 d0 35 a5 3f 99 b5 c9 aa ae fa b6 bf
       0.04142619916609698 -0.08976260823847894
0001f0 97 b5 bc 37 51 1e cd bf f9 41 a7 13 16 ac d8 bf
       -0.2274877092508347 -0.38550331038734914
000200 ae 15 19 fb 98 99 e5 bf f0 c3 2a 1e e9 af d3 bf
       -0.6749997047669944 -0.30761173196793745
000210 1a fd 05 f4 e9 44 9a bf 6b b7 60 79 70 df c6 bf
       -0.025653510588651597 -0.1786938278832467
000220 b2 31 4f f4 8c 94 b0 bf 1e b3 f3 6e df 79 b4 3f
       -0.06476670231422224 0.07998463114536178
000230 c8 d6 46 ab 30 9d c7 3f bb 42 23 27 d3 fd ec 3f
       0.18448456156845894 0.9059844746025968
000240 54 e7 04 72 f3 46 e3 3f b2 91 b6 ce 7a 4c d3 bf
       0.6024110056816689 -0.30154295145828336
000250 bf 2d 12 e8 d0 37 d2 bf 88 5d 8b de 39 30 ba 3f
       -0.28465674079117415 0.10229837115490714
000260 68 79 a5 ec d4 bd d4 bf b6 fd 08 03 60 ed c0 3f
       -0.32408640966413893 0.13224411152076038
000270 df a1 95 ad a9 75 cc 3f 2f d6 3c 4b 48 3f d0 bf
       0.22234078384214137 -0.25386245105196087
000280 53 4d 44 a9 84 d8 ce 3f e0 49 de e6 17 49 dd bf
       0.24098261132221896 -0.4575862650464426
000290 21 98 63 10 c6 25 e2 3f 26 25 39 07 52 8e d6 bf
       0.5671110458467902 -0.35243654923813705
0002a0 9b 5d 7f d1 2d 7a e4 bf 10 10 59 47 c0 bc d6 3f
       -0.6399144260166624 0.3552704521900987
0002b0 f7 8d 4b 6e 88 27 c0 bf 4d 82 90 aa 00 d2 c1 bf
       -0.12620644937042844 -0.13922127083152916
0002c0 05 b2 bd df 35 24 dc 3f 3b 79 05 3d c1 72 d2 3f
       0.4397101101847343 0.28825407942885634
0002d0 e0 af 61 f6 e7 55 c5 3f 23 b0 56 61 43 e6 e1 bf
       0.16668414621687955 -0.5593583012719175
0002e0 d5 a3 36 61 2e 23 d9 3f 17 9f d6 29 56 85 d5 bf
       0.39277228826045746 -0.33626321874406656
0002f0 9e ac bc ac ef 91 e2 3f 56 0a e7 c4 8d e5 d7 bf
       0.5803144811410623 -0.37338585118064793
000300 89 de 78 6b 36 fd ea bf 54 fb 5a 80 00 da 92 3f
       -0.8434097384515137 0.018409736475173702
000310 5f 3b 80 09 48 6e f3 bf 53 07 5b 2f 7b 74 e5 bf
       -1.214424168694414 -0.6704688954271013
000320 fd c6 3b a4 4e 85 d1 3f 43 ed ff 5b 1f ab c1 3f
       0.2737614253847907 0.13803474418805636
000330 34 72 80 2a 41 e4 cf bf dd e5 0c 6b 77 3e af bf
       -0.24915327620773697 -0.06102345639960636
000340 9e 95 62 8a 94 53 c4 bf 68 85 73 ac 8a 78 c6 bf
       -0.15880066639981022 -0.17555364056083111
000350 76 35 7b 51 3d 4f d2 bf 89 4f dc 75 5b 29 cf bf
       -0.28608639676243486 -0.24344962363158754
000360 cc 9d 22 14 d7 ae c4 bf cc fe 88 82 62 c6 92 bf
       -0.16158569796719602 -0.01833490297053579
000370 82 b9 36 6f 4e 02 a8 bf 1f a2 fe 14 39 d4 d0 bf
       -0.04689259631719535 -0.2629530625368108
000380 e7 84 17 76 f4 45 ee bf bf b9 29 f2 1f 21 d2 bf
       -0.9460394197923535 -0.28327177666406195
000390 e7 46 9b e0 00 35 ea bf 43 f8 8c 5c 84 81 e6 bf
       -0.818970144924802 -0.7033101852064266
0003a0 36 1a c0 59 70 5f cd bf 63 99 73 7d d1 0d e9 bf
       -0.22947506315559146 -0.7829368067003027
0003b0 c0 71 7d 1f 23 62 ae bf 38 b5 33 17 9b 32 cc 3f
       -0.059342477411266525 0.22029436715039608
0003c0 76 13 d5 72 af cb e6 3f 2f f8 fa 81 e7 dd cc bf
       0.7123639338320646 -0.2255219826383281
0003d0 ea 69 52 dd d3 d7 90 bf 0b 73 7a ef e8 ad df 3f
       -0.01644831693975305 0.49498961817316517
0003e0 c5 3b 95 2e 19 bd e7 bf a6 c2 b0 72 b9 02 e1 3f
       -0.7418332967589484 0.5315825691269154
0003f0 a3 9a 8a 44 67 9e b7 bf b8 75 2b 52 40 c1 cf bf
       -0.09226079390883028 -0.2480850602359348
000400 9c f1 43 b6 ea ec e5 3f f7 cb c5 2b f0 db b9 bf
       0.6851705131407928 -0.10101224011104636
000410 31 ca b7 16 43 38 cb 3f 9f e2 a5 07 7b 20 dc bf
       0.21265448197625994 -0.4394824576079745
000420 49 1e f6 6e 83 8d ac 3f ca 8f 41 8d 2a 3d b3 3f
       0.055767161650746085 0.07515207241664182
000430 e0 4a 18 20 25 7a cc bf 5c 6e 95 30 ef 5d d2 bf
       -0.22247757022031234 -0.286983296818766
000440 1b 84 d4 a8 2b 76 d2 bf 56 78 e1 49 19 bf c8 bf
       -0.28846255767172274 -0.1933318720575154
000450 db 33 89 8f 2b ff e4 bf 4f 33 e4 51 15 e4 dc 3f
       -0.6561487010418391 0.451421098682478
000460 e9 ee 0b b1 9e 42 b8 3f a8 0b 96 0d 6b 6b e2 bf
       0.09476653883387666 -0.5756125703195396
000470 e1 39 44 a0 ba 8e d2 3f aa 7a 48 68 fc b7 c2 3f
       0.2899614873030299 0.1462398060984545
000480 29 79 32 88 22 8b e3 bf be 8d ee c9 45 98 e0 bf
       -0.6107342395878607 -0.5185879653912975
000490 02 ab 23 82 d3 35 c7 3f 2d af af d1 71 23 dd 3f
       0.18133014540156728 0.45528836705374226
0004a0 94 6e f7 1f 7b 98 c7 3f c9 67 6b 0a 55 39 e2 bf
       0.18434084950319074 -0.569498558378876

modules/net/0/parameters/bias f8 [6]
000000 00 00 00 00 00 00 00 00 00 00 00 00 00 00 00 00
       0.0 0.0
000010 00 00 00 00 00 00 00 00 00 00 00 00 00 00 00 00
       0.0 0.0
000020 00 00 00 00 00 00 00 00 00 00 00 00 00 00 00 00
       0.0 0.0

modules/net/3/parameters/weight f8 [16, 6, 3, 3]
000000 79 e0 c9 22 47 db da bf 89 33 93 69 31 08 e2 bf
       -0.41963365933725744 -0.5635001241695231
000010 4a 37 89 8a f6 33 9c bf f7 f1 11 7a 5c a6 b0 bf
       -0.027541973310057068 -0.0650384710333539
000020 cd 8f 0a 08 d5 a5 c0 3f 52 80 50 9a 31 b7 d5 3f
       0.13006079571380127 0.3393062598206643
000030 c5 79 9a e5 19 71 cf bf 42 8e f8 1b e4 d0 9a 3f
       -0.24563907347778816 0.026187481124124064
000040 11 b2 f5 99 8c e4 b2 3f 2a 71 7d 3e 75 29 af 3f
       0.07379988440306585 0.060863174322295
000050 c8 eb 91 fa 4e b1 a5 3f 64 f1 bd 05 61 7a e6 bf
       0.042368381583365144 -0.7024388420245882
000060 ee 9e 6f f0 f6 89 d1 3f 54 bd 01 cf 27 aa c7 bf
       0.27404569130020107 -0.1848802338385932
000070 f0 1e da e8 8c 3a b4 3f 72 89 fc a6 2b 57 b3 3f
       0.07901840863098264 0.07554886652773066
000080 b2 3c c4 6e 64 cc de bf f0 f7 c1 9d 24 d5 a9 3f
       -0.48122511689229974 0.0504542772841744
000090 d2 e3 4a 99 3e 71 e5 bf 79 1b c7 cd 96 1a d4 bf
       -0.6700737947459123 -0.3141228684948412
0000a0 7d 7b 34 33 db 72 b6 3f 2e e7 04 2f 7f 81 a1 3f
       0.08769006729242608 0.03419110726322426
0000b0 74 a3 cd b0 bd d3 d4 3f cb 7a 07 ee dc 5f c6 bf
       0.3254236437410818 -0.17480050680656797
0000c0 8a e7 e1 69 6b d4 97 3f d4 da 3d bb b7 83 ce bf
       0.023271253907729363 -0.23839470522553674
0000d0 d6 97 54 b7 d1 94 da bf 78 47 ed 4b 9d 17 dc 3f
       -0.4153332033478113 0.43894131102307865
0000e0 d9 cd 07 53 be 98 da bf 07 56 65 e7 a3 cb c2 bf
       -0.4155727206081941 -0.14683960722565834
0000f0 23 a1 b6 66 85 84 c2 3f 04 c8 1c bb 61 c3 d0 3f
       0.14466922297766258 0.2619251563329501
000100 12 1a bf 11 d2 ac cf bf 9d 34 cb 7d 32 92 d7 bf
       -0.24746156565215977 -0.3682981708960343
000110 4d 88 a5 b3 1a 50 9d 3f 5e b4 b0 36 d8 05 e2 3f
       0.02862588616825006 0.5632134502572048
000120 0d eb 2a 3f ff be d4 bf bb cd 1c c6 af 84 d2 3f
       -0.3241575352546285 0.28934854838299956
000130 61 8d b4 06 e1 8d e0 3f b3 a4 bb ab 5a e2 c0 3f
       0.5173192149126572 0.13190778146171098
000140 c9 54 60 74 d4 bf 96 3f 5f 0c 37 e8 0f 2e ca bf
       0.022216147997899314 -0.20453070486664424
000150 84 9c d5 7a c5 06 d1 bf d4 05 5f 56 80 b2 d3 bf
       -0.2660382937960508 -0.3077698558300572
000160 bb e7 4b ca 52 6c d7 bf 55 d5 14 90 c2 dd dd bf
       -0.3659865356017879 -0.46666015692183765
000170 2a 62 d6 85 02 10 bc bf 1f ac fa 43 19 a0 ac 3f
       -0.10961929099574577 0.05590895609687884
000180 94 34 6f 19 75 e3 c5 bf 05 c2 9f 61 73 c4 d3 3f
       -0.17100394956506604 0.30886539968108223
000190 71 23 cc c8 fc 15 cc 3f c3 87 17 92 fb 8a c9 bf
       0.21942100338517492 -0.1995539153422766
0001a0 85 2e 3c 88 1b 5c ba 3f 00 83 ac f6 f3 ed c9 3f
       0.10296794963886143 0.2025742487394595
0001b0 27 49 bb 94 9d 6a b1 3f de 14 3b 01 2c fd c6 3f
       0.0680330741991254 0.17960119304749517
0001c0 8c c3 07 d7 2f 32 bc 3f 99 33 c4 d9 9e d5 d0 bf
       0.11014079093707901 -0.26303836122752383
0001d0 cf 59 04 20 63 37 d1 3f b5 77 b2 5e b6 cf d8 3f
       0.2690055668512316 0.38767775771872987
0001e0 5f fe c8 ef 07 f6 bf 3f c5 90 66 23 5e b2 d9 3f
       0.12484788517121491 0.4015117021283568
0001f0 d7 2f 58 f2 65 21 d6 3f b5 88 fe 59 55 ac b1 3f
       0.3457884661336243 0.06903584906698053
000200 fb 94 4e 2f 78 34 ac 3f c0 de 56 f8 c0 6c a6 3f
       0.055087810301566585 0.043798475565777206
000210 35 24 ee 95 03 fd d9 3f c0 28 ba 7c 35 03 df bf
       0.4060677494204044 -0.4845708578146848
000220 4f 7a d8 5b a2 de e5 3f 73 0c 12 22 41 90 d8 3f
       0.6834270280704206 0.38380459143826967
000230 cf 95 c0 77 91 b4 c4 bf cb 02 cd f6 40 9b 98 bf
       -0.16176050517348847 -0.02402974611618695
000240 f7 8d 87 be 88 c8 e0 3f 8f 08 b5 31 ee 19 bb bf
       0.5244792672423831 -0.10586441720536953
000250 ec 52 74 b6 df 21 e1 3f 05 cc 6f 5c 72 0a b0 3f
       0.5353849948465643 0.06265940434222735
000260 fa 6a 47 9d 3a 56 76 bf f1 d1 f3 09 1b 7b d9 3f
       -0.0054533280967585755 0.3981387707893012
000270 c3 e0 9e 45 03 1c d2 bf df 48 d8 84 f0 ec d0 bf
       -0.28295976446998966 -0.2644616410554032
000280 ff 52 c9 9a 0e 88 cc bf 5f 96 d7 fa d9 0d c4 bf
       -0.22290213163309855 -0.15667271373893052
000290 be 7f 59 33 0a c1 c7 bf df 1e cb 88 a9 fd d1 3f
       -0.18557860858254388 0.2811073146699367
0002a0 52 9c 6c e8 d7 99 dc 3f 2c c1 d2 9d 04 64 d2 bf
       0.4468898553627173 -0.2873546162836813
0002b0 ab aa 4c 56 bb 74 a3 bf 37 e2 59 1a 4f 93 b0 bf
       -0.03799996784649314 -0.0647477568944702
0002c0 4a 97 55 b7 f7 fd da bf 15 0d f8 86 4b a2 db bf
       -0.4217509546636974 -0.43178070240556227
0002d0 b6 22 9d 81 c1 2b a4 3f 8c a9 06 bc 07 5a e0 bf
       0.039396330902098084 -0.51099001621087
0002e0 13 e8 a1 84 3e 3f d1 3f 78 b0 91 7b 26 cd dc 3f
       0.2694851203192467 0.45002138201994724
0002f0 ed a1 bb dd e3 90 d5 bf 23 86 f5 13 6e 2e e2 3f
       -0.3369683900223482 0.5681677236390822
000300 ea 29 b3 db f8 e9 d2 bf 77 61 98 0a eb b5 e1 bf
       -0.29553052382530487 -0.5534568030298449
000310 21 73 50 fc 85 6a c0 bf 84 db 9d 9b cd c7 b4 bf
       -0.12825083560974185 -0.08117375420793677
000320 e0 23 2d 1f 20 56 d7 bf ed 37 e8 d0 6e 51 98 3f
       -0.3646316818672499 0.023748141766240783
000330 b7 3f bf 0e ec 89 d0 3f fe 85 d3 3d 9b 47 c1 bf
       0.2584180969251934 -0.13499775427685273
000340 79 b9 ef ab 13 bc 96 bf 6c 79 40 25 d0 71 d0 3f
       -0.02220183121601724 0.25694659841419454
000350 38 7c 97 fb 35 dc c0 bf 7e 0b 9f 94 a6 b8 d6 bf
       -0.13172030243637933 -0.35502018464847385
000360 4e 19 95 e4 64 b6 a3 3f 01 00 8d 62 dd 3e dc 3f
       0.03850093164742195 0.4413369619760488
000370 7d 73 60 07 4d 14 db 3f 62 eb 8b c0 6b e8 89 bf
       0.423114068225736 -0.01265033894877882
000380 d8 8e 27 99 d0 54 d3 bf d4 e3 c5 77 26 a1 a2 bf
       -0.30205168682571815 -0.03638572895119521
000390 6f 00 57 1e 66 56 c7 3f 14 7e 8e 6c 86 78 a5 bf
       0.18232418519437796 -0.04193515849260279
0003a0 c2 40 fc 0d 51 ae cb bf 81 4c 5c 2a 53 54 de bf
       -0.2162572210586458 -0.4738967813183948
0003b0 6b 3e ae 9e b8 9b cf 3f 3f b6 70 38 b1 5b dd bf
       0.2469397330100834 -0.45872145187135865
0003c0 54 74 89 ef 98 77 a9 3f c5 86 e8 6e ae 58 e1 bf
       0.049740580787990624 -0.5420753637483463
0003d0 4d bb 4f d4 42 e0 c1 3f de b2 05 e1 eb 43 d0 3f
       0.13965640417833428 0.2541455934031499
0003e0 70 a3 b1 72 86 7c b6 3f e9 5f 70 ef df 4a e3 bf
       0.08783760357040449 -0.6028899838011031
0003f0 64 d8 f4 f2 9e 37 c1 bf e6 7a 96 56 6b f9 dc bf
       -0.13450991500002651 -0.4527233453353986
000400 33 ae d8 7e 16 f6 a3 bf 3b 65 32 b3 ce 4a bc 3f
       -0.03898687647264545 0.11051647066996832
000410 70 88 e9 fb 4e 1d 93 bf 52 9e e6 5d 64 9d b8 3f
       -0.01866649067449838 0.09615161221028615
000420 23 f8 5f 4d 8e 38 bb 3f de 84 6b 6c f5 ca d0 3f
       0.10633172406230122 0.26238761508836983
000430 5a 86 14 6c e6 4a d4 3f 18 9b c2 8c bb 47 9e bf
       0.31707153849320024 -0.029570513216323396
000440 af 3b ff e1 30 4b a8 3f 76 60 61 05 6b e9 be 3f
       0.047448661410832364 0.12074917680127037
000450 3a b1 ff c8 e9 7e d6 3f 48 16 20 02 e2 4f ad 3f
       0.3514961684111487 0.05725008274025051
000460 90 83 6f 59 02 82 bf 3f 1d 91 b8 bd 9b 76 e1 3f
       0.12307753261076315 0.5457285600173553
000470 b1 fd 79 8f f4 3c 73 bf d0 39 28 de 7f 05 ca 3f
       -0.004696803392675462 0.2032928309203741
000480 ec 88 50 ef 65 15 b6 bf 07 ab 1d c8 cf fd 9f bf
       -0.08626401035920467 -0.031241652096848174
000490 1c c6 0b 1e b7 7c b5 bf 8f a7 45 2c 4a e4 9c bf
       -0.08393425448937147 -0.02821460623946553
0004a0 13 c3 ae d0 d1 ea ba 3f f0 d0 28 18 17 0f c6 3f
       0.10514556259910206 0.17233551673564973
0004b0 c8 90 80 89 e1 f6 b8 bf 34 b8 3d 26 ea 9b dd 3f
       -0.09751710516917733 0.462641274781052
0004c0 88 f7 3b 57 54 00 de 3f 74 c7 b5 f5 36 63 a9 bf
       0.4687701084038669 -0.049585072988420104
0004d0 33 c1 0a b3 79 a5 d2 bf c1 4b 2f b7 dd ac bb bf
       -0.29134981617518746 -0.10810647699626853
0004e0 fb 45 29 9d 8e 22 d3 3f 07 1c 63 7c 3a 48 df bf
       0.29898419711852825 -0.48878347537214534
0004f0 e2 43 20 92 72 61 9e bf 71 d0 58 d7 d9 40 d2 3f
       -0.029668607872796467 0.28520818738912285
000500 06 86 0d e7 54 15 a4 bf 82 c3 b0 d7 c0 6a d0 bf
       -0.03922524757832595 -0.25651570380710365
000510 36 71 20 10 45 7f dd bf 05 a9 a3 be b8 28 d3 3f
       -0.46089293074489335 0.2993604528152363
000520 89 a5 0a 32 7c 62 b5 bf 64 79 d6 c9 bc 14 cc bf
       -0.08353401395529238 -0.21938285689698056
000530 9b 8a 0c 00 70 c0 d3 bf 08 ed 26 da b9 30 bc bf
       -0.3086204529264848 -0.11011849952676667
000540 4e f9 13 89 2f 1d e2 bf 9d ca 6d 21 40 66 d3 bf
       -0.5660627057366499 -0.30311587585962646
000550 61 a9 db bb 86 06 ca 3f ea fd df a6 fa a5 a2 bf
       0.20332416699177272 -0.0364225701050563
000560 b2 eb d6 62 a1 2f 7a bf 5f 55 2e 29 58 ca cb 3f
       -0.006393080152913665 0.21711256037512336
000570 1b 35 e8 f5 72 62 cd bf 9d 56 3c c2 a6 1b d1 3f
       -0.22956692702465706 0.2673127075989699
000580 99 f1 80 0f 55 20 dd 3f 90 d4 96 67 a4 40 d4 bf
       0.45509840501815685 -0.31644544712191536
000590 8e 32 11 45 21 97 bb 3f b5 ed 41 fd e0 dd dc bf
       0.10777481018267052 -0.45104241115742677
0005a0 38 d8 40 b2 ff 40 cf 3f 89 4d c4 37 17 71 83 3f
       0.24417110637449624 0.00949304713188927
0005b0 6f ba 8f 19 e0 92 eb bf 03 e6 4a fd 16 91 b0 bf
       -0.8616791247603269 -0.06471389469052018
0005c0 4a 39 39 27 97 49 d0 bf a6 35 fe 95 c0 f0 a7 3f
       -0.25449160414145366 0.046758669194882516
0005d0 6b 82 c7 11 ba 25 d8 3f d6 1e b7 2c 1e 67 c2 3f
       0.3773026631952578 0.14377190764775233
0005e0 d2 58 e9 19 cf eb cc 3f 7a 00 58 59 98 e1 c1 3f
       0.22594631924829983 0.13969711649406574
0005f0 9e f6 d4 82 59 c1 82 3f b2 03 f0 60 fe 6c bc 3f
       0.009157847695515028 0.1110381113685566
000600 0d c8 be bf 38 7b d0 bf 7c 8e a3 bf 5d 0b cd 3f
       -0.2575208542358503 0.22690936906211678
000610 50 33 40 b3 c6 2c d4 3f 44 3b 13 50 10 ea d6 bf
       0.3152329206939628 -0.3580361158355354
000620 3e 5e 25 e6 4f a0 e6 bf 26 64 6b 2d 0a a4 c8 3f
       -0.7070693488157713 0.1925060960554969
000630 9a 30 0e 1c 47 b6 d9 bf 38 8d 0a 9b 20 48 e1 bf
       -0.4017503522852707 -0.5400546100758339
000640 fa 49 59 43 e1 22 d9 3f c0 77 4e f7 42 13 bc 3f
       0.39275390221624173 0.10966890847927768
000650 59 d3 e4 71 69 1a d7 3f d3 a8 36 25 f0 b3 b7 3f
       0.3609870540852192 0.09258938702137991
000660 57 dc e4 8e ac 79 ac bf 32 f6 5b 72 d6 20 e3 bf
       -0.05561579937278143 -0.5977585061625119
000670 fa a1 c9 ea 9e 29 e2 bf 42 29 42 0d 27 03 b2 3f
       -0.5675806604095321 0.07036060403530534
000680 7a 18 70 06 30 4e d4 3f b1 97 4c 8b 8f c2 c8 bf
       0.3172721922750338 -0.19343752195089572
000690 cd 25 84 77 f7 18 b4 3f ec a6 94 62 6d 9a c9 3f
       0.07850596111179371 0.20002524674901367
0006a0 40 9d 41 8a ae 2f c6 3f cf 23 7d 61 cd f4 9d 3f
       0.17333013296886612 0.02925415904545386
0006b0 2a ba ef a3 7a 8f b1 3f 1b 1c 0f 7d 4c 62 9a bf
       0.06859556677202563 -0.025765605099675164
0006c0 60 1c 37 a8 2a 4d 9a 3f 25 18 5a 47 b7 52 9f 3f
       0.025684992329641054 0.030588973741508724
0006d0 6f 03 4c c4 56 1c e2 bf e2 35 fb f7 19 c8 a4 3f
       -0.5659593423771251 0.040589152833131484
0006e0 05 86 d9 8b 7b 29 db bf b6 c8 3c ba 62 4c d4 3f
       -0.4244068971366633 0.31716221034288183
0006f0 c0 12 89 d6 ff 5e 92 bf 7b ca 39 84 f0 55 be bf
       -0.017940518826679464 -0.11849883297126411
000700 f5 fa 26 b6 92 09 d2 3f 3a c1 09 1d 9e 42 d0 3f
       0.2818342951613169 0.25406601749184043
000710 8e 34 50 5c b6 cd d9 3f 74 03 30 f5 24 02 c0 bf
       0.4031806851861085 -0.12506544086502525
000720 5b b0 e8 18 9d 53 ca 3f 81 3f 5b 5e a0 06 b3 bf
       0.205676686441964 -0.0743198614466092
000730 f4 86 2f b8 10 cd ba 3f 63 32 c2 00 f4 8a e2 3f
       0.10469154831619304 0.5794620528045694
000740 dc e9 fc 13 e8 f4 db 3f 91 50 29 50 f0 d3 c0 bf
       0.4368229098505745 -0.1314678565419212
000750 8e a9 0f 79 e4 38 99 3f c0 ac 63 b5 21 67 c6 3f
       0.024631090058315368 0.1750223289194306
000760 e0 f5 68 ae 50 ee e1 3f 96 c0 45 d7 01 b4 e2 bf
       0.5603412062116 -0.58447353406338
000770 e6 94 91 7f d0 48 c8 3f 3f 1f 67 82 24 61 c0 bf
       0.1897221205610215 -0.1279645573360941
000780 6f ff 56 ae 54 9e 8c bf 52 a3 21 a9 4e 12 b3 3f
       -0.01397386700671152 0.07449809674438981
000790 81 4a 55 bd 5c d8 bc bf 2c dd 39 51 d5 11 df bf
       -0.11267642614738273 -0.485463456461235
0007a0 14 54 40 ae 2f 10 d0 3f ba 4b e5 2d 01 34 dc bf
       0.2509879304573712 -0.44067410928726825
0007b0 de ad 5c 6b 7b 07 e3 3f 86 0f 5e ec 2e 38 dc bf
       0.5946633431353197 -0.4409291561389569
0007c0 75 93 04 de b7 e0 c7 3f 62 75 44 e0 0a f8 c7 bf
       0.18654535618511728 -0.1872571559005492
0007d0 09 79 9d 1d 15 8a d3 3f e5 19 c1 58 0b f6 d9 bf
       0.3053028859338985 -0.4056423537007546
0007e0 14 4d 58 64 12 fc cf bf aa 4e 9e dd 27 99 df 3f
       -0.24988012218145939 0.4937228836290425
0007f0 9e f1 05 dc 9b 89 c6 bf b3 b7 ec 3a 03 2f a8 3f
       -0.17607448809930032 0.04723367780967127

modules/net/3/parameters/bias f8 [16]
000000 00 00 00 00 00 00 00 00 00 00 00 00 00 00 00 00
       0.0 0.0
000010 00 00 00 00 00 00 00 00 00 00 00 00 00 00 00 00
       0.0 0.0
000020 00 00 00 00 00 00 00 00 00 00 00 00 00 00 00 00
       0.0 0.0
000030 00 00 00 00 00 00 00 00 00 00 00 00 00 00 00 00
       0.0 0.0
000040 00 00 00 00 00 00 00 00 00 00 00 00 00 00 00 00
       0.0 0.0
000050 00 00 00 00 00 00 00 00 00 00 00 00 00 00 00 00
       0.0 0.0
000060 00 00 00 00 00 00 00 00 00 00 00 00 00 00 00 00
       0.0 0.0
000070 00 00 00 00 00 00 00 00 00 00 00 00 00 00 00 00
       0.0 0.0

modules/net/7/parameters/weight f8 [400, 256]
000000 dc 85 5a 43 b2 33 b9 bf 05 45 d5 be 6b 31 b3 3f
       -0.09844507355094073 0.07497285279284334
000010 ab b1 ce 66 57 e7 da 3f 1b ef f8 31 d5 3d 9c bf
       0.4203699592569829 -0.02757962338931384
000020 fa cd a8 36 49 05 af bf 82 8c 6a 62 a0 44 a1 3f
       -0.06058720390538137 0.03372670365686138
000030 da de e8 e9 b6 4b c5 bf 35 8c 50 4a 29 c7 90 bf
       -0.16637312337274218 -0.016384740029149653
000040 a8 d4 e2 62 5f bd 52 3f c4 81 b7 6b 66 e9 b2 bf
       0.0011437827593401648 -0.07387390260510701
000050 44 ca 41 7c 7b 08 a9 bf 1a e2 ba 6a cb 5f c4 bf
       -0.04889284030732147 -0.15917341910768884
000060 2e dd dd 1a ab f5 c8 3f a4 3c c1 3c 99 80 ae 3f
       0.1949972039398999 0.059574879328118585
000070 91 13 07 9f e5 40 c7 3f 11 02 4a c7 43 aa c1 3f
       0.18166799798032376 0.13800856810486598
000080 59 4d b6 d9 c1 ae b0 bf 9b b1 ef 93 ba 45 ca bf
       -0.06516658368336915 -0.2052529547066911
000090 6a 23 3b ac b9 7a d0 bf 2d 1b 40 98 38 eb b2 bf
       -0.25749055690226064 -0.07390168873835697
0000a0 c2 c4 cf 64 ec c5 40 3f 63 b6 a9 1c a7 c2 a5 3f
       0.0005118755594805335 0.04250070786370654
0000b0 26 99 f3 e7 4d 97 b1 bf 35 13 fc 1f d2 d4 9f bf
       -0.0687149707115152 -0.031085284425915922
0000c0 bf ba c2 1a 14 57 cd bf 4e 70 7f 2a fd 9a c3 bf
       -0.22921992594407034 -0.15316738677109004
0000d0 c7 43 14 69 2d f1 83 bf 96 4a a7 00 7c 3b bb bf
       -0.009737353104840708 -0.10637640968279025
0000e0 f6 1f c7 8f 36 9d b5 3f a2 1a 83 06 82 43 a9 3f
       0.08443013200951541 0.049343169493615294
0000f0 a5 13 99 62 20 98 c3 3f 24 9f ed d2 63 59 a7 3f
       0.15308003248551674 0.04560386609847303
000100 33 c6 f9 7d aa 8d c2 bf 23 1a 7d 33 97 c5 ba bf
       -0.1449483027568462 -0.1045774937348161
000110 d3 ef 9d 94 a3 66 b2 3f da ea dd 75 3d 00 a1 bf
       0.07187864664405134 -0.03320495666317465
000120 5f ab f2 1a b1 ee c4 3f 22 74 74 d0 2a 66 d3 3f
       0.16353429618660706 0.3031107936565737
000130 0d 05 d5 2b 1d 97 d5 3f af d9 58 1f a8 72 a8 bf
       0.3373482635543759 -0.04774976141600306
000140 87 28 c7 b0 b0 c2 86 bf 3d e1 f4 ab 7d c9 c5 3f
       -0.011113529581866522 0.1702115144378328
000150 5d fd 3c c6 ff eb aa bf 14 48 52 49 c0 bc 5a bf
       -0.05258178038502124 -0.001631915836047164
000160 a9 df 17 79 85 e5 aa 3f 54 86 82 50 b5 82 98 3f
       0.052532359153644244 0.023936112440998095
000170 a3 2e 02 3b a4 cd bb 3f 80 ae 06 2c 61 73 bb 3f
       0.10860659065854832 0.10722930264335595
000180 cf b5 e0 ac 88 0c c7 3f 1c 5a 04 34 81 07 8a 3f
       0.18007000390336578 0.012709626579220638
000190 d9 f3 9f b0 f3 1c 45 bf c3 15 23 34 92 a1 92 bf
       -0.0006443204777039038 -0.0181944698640757
0001a0 58 50 f6 4c a0 08 c8 3f 74 35 0e d7 cb 8d 9a bf
       0.18776324994962823 -0.02593153476805328
0001b0 d5 5a 1c ac 1b 47 c0 3f 2f 87 47 b0 e3 38 c0 bf
       0.1271700468430114 -0.12673612697022338
0001c0 79 6b 6b 8b f1 cb 8f bf b3 07 5e 0b df a0 b9 3f
       -0.015525710170029449 0.10011095073244185
0001d0 5c 99 b4 35 66 8d c2 3f 71 37 b5 53 db e2 9e bf
       0.14494016287171518 -0.030162264808772436
0001e0 66 de 07 3b 06 c4 b9 bf 11 37 03 68 37 3b b4 3f
       -0.10064734402828321 0.0790285710274612
0001f0 c3 19 8c 77 4c f8 ba bf c2 09 02 0c 36 ae 9f 3f
       -0.1053512374747703 0.030938000185878563
000200 e4 ad d8 b9 ae 15 b1 bf 21 29 c6 b7 6c 82 5e 3f
       -0.06673709904924113 0.0018621503541874156
000210 72 98 bd 59 d1 9e b4 bf bb 16 1e e1 7c ad 8b 3f
       -0.08054836693699644 0.013514495487253133
000220 81 15 56 5f 1c 00 d1 bf 12 36 06 59 a9 13 d0 bf
       -0.2656317645090312 -0.25120004361892356
000230 c6 94 48 f7 bb 7c c2 bf c7 20 c8 54 14 03 a5 bf
       -0.1444315869750083 -0.04103911909993623
000240 d5 95 f9 22 14 8c a4 bf 7f 1d 46 77 a7 7a 85 3f
       -0.04013121535244194 0.010487850501489813
000250 8d 91 6f 85 27 6f 96 3f b7 49 fd 6f 73 0b c0 bf
       0.02190839530875759 -0.12534945457680433
000260 9c 01 59 ed f9 62 a1 bf 9e d2 d5 6f 13 fc c8 bf
       -0.03395825407324368 -0.19519274674134562
000270 19 f7 d8 b0 af 8d c2 bf 8b a5 ce c6 3d 83 9e 3f
       -0.1449489224923404 0.02979752088473257
000280 1f de ee b4 6b 17 c0 3f 0a 41 15 c0 9c 6b aa bf
       0.1257147439443864 -0.05160226673854325
000290 6b de 29 7e 10 ad be bf 79 d3 14 55 64 11 7e 3f
       -0.11982825355686948 0.007340804980505372
0002a0 b8 83 11 09 02 fa b0 bf 58 c7 b3 ae 7b 69 87 bf
       -0.06631481858631971 -0.011431661862363704
0002b0 89 e6 25 3e 5c 4e b5 3f 09 96 db 94 bf 5c ba 3f
       0.08322693364416457 0.10297772773954973
0002c0 a0 6e 1a a1 2d 7e aa 3f 26 84 d4 4c bc 68 d5 bf
       0.0517439135703317 -0.3345175504965162
0002d0 b7 06 c3 5a 2f c6 b2 3f d5 a3 ca 51 89 ef be 3f
       0.0733365627848127 0.12084253546585384
0002e0 e0 e3 7e fc 0c 23 a3 bf c4 30 be 0f f7 7e d1 bf
       -0.037376790830826456 -0.2733743337382857
0002f0 63 29 6e b1 77 12 c2 bf 2c 42 8b cf c9 2d b7 bf
       -0.1411885849341373 -0.09054242436401044
000300 6b 6b f8 93 90 59 c5 bf 25 a3 42 b4 96 2b 95 3f
       -0.16679579949490217 0.02067409014913148
000310 c9 3e 00 14 fd 26 b7 bf c4 af 1f 73 11 77 ba 3f
       -0.0904386686163391 0.10337933598174148
000320 09 2e 93 26 05 78 bc bf 8e 20 39 61 7a 33 ba bf
       -0.1112063616921476 -0.10234799264537939
000330 31 89 4c 49 f6 ca b2 3f f8 8a 0d 12 17 9d bc 3f
       0.07340945519948573 0.11177200499291107
000340 8c 53 5e 18 64 b8 b8 bf 63 ff 73 ad f3 fb bc bf
       -0.0965635833257023 -0.11321948036856848
000350 08 42 53 10 85 c6 93 bf 80 dc 2e fd 72 2f 8f 3f
       -0.01931198036328577 0.015227220870526859
000360 b2 3f c1 a4 aa 45 c5 bf 07 b0 ce 90 35 e4 92 bf
       -0.1661885551898173 -0.018448674167004266
000370 74 e9 bb 38 61 82 a8 bf c8 bb 59 d0 e5 34 c8 bf
       -0.04786971871904458 -0.1891143100105792
000380 4c dd 8a 5c cf 1a b6 3f b5 26 e9 52 b1 63 63 3f
       0.0863465882238092 0.0023668731076086033
000390 84 3d 2d 53 a1 52 8c 3f 08 6e 1f e4 71 e4 a9 bf
       0.013829479552127884 -0.05057102117254081
0003a0 0d 9a ab c9 06 e6 aa 3f e5 28 42 75 27 50 bc 3f
       0.05253621303363696 0.11059805500750348
0003b0 cf e0 95 81 50 f9 9f bf 55 de 0c 93 63 95 c5 3f
       -0.03122449675490274 0.1686214893359074
0003c0 db 3a 2f a7 e1 e5 ac 3f a5 93 6b ff ae fb b0 bf
       0.0564413563330299 -0.06634038673253302
0003d0 c7 8f cc ac 76 89 39 3f bc a0 50 dd 72 e4 a7 bf
       0.0003896631940725173 -0.04666480018232863
0003e0 8a 86 31 64 97 39 c1 3f ee e5 e5 97 a1 c5 99 3f
       0.13457004921206234 0.025167965789909923
0003f0 5f 1d 7f d6 fa 1c a7 3f df 88 df 3f 19 51 a8 bf
       0.04514297359815588 -0.04749373345090801
000400 4d 96 fb 4d cb 9a c9 3f 28 55 08 48 b2 1b 74 3f
       0.20003644283058222 0.004909225856427647
000410 2d 55 6a 20 9b f0 c3 3f 4b 78 0f d7 f7 a6 b1 3f
       0.15578021128445965 0.0689539814042927
000420 49 85 47 1e 40 1e cd bf 93 1e a5 f2 5f 90 c6 3f
       -0.22748567083821516 0.17628096912288935
000430 39 35 83 99 1c 30 90 3f da f5 c1 50 be 93 be bf
       0.01580853163686877 -0.11944188567755223
000440 25 bc b7 9a df 67 b1 3f 22 5e b9 93 a1 0e ab 3f
       0.06799123313224749 0.0528460018946897
000450 ea b5 e0 cf 0f 4d c1 3f 23 1d 2f c7 2c 08 be bf
       0.13516423845560094 -0.11731223929301797
000460 03 f8 ff 07 11 b2 a6 bf 41 22 4e fd b4 ed c2 bf
       -0.044327289797351475 -0.1478792416421744
000470 76 67 74 d7 10 a4 b1 bf 86 92 3c e4 32 97 bb bf
       -0.06890969524502374 -0.10777586052115326
000480 2d 42 ea 3d 73 70 c7 3f a3 97 c5 be 74 ee b6 3f
       0.1831192066497506 0.08957605035320042
000490 f9 35 df a4 3d 83 c1 3f 99 c7 35 04 e9 89 66 bf
       0.13681765127550685 -0.00275130759262594
0004a0 dd 8e 8f fa 25 3b b0 bf 4b bd 06 49 28 3c 90 bf
       -0.0634025322647704 -0.01585448213307687
0004b0 08 00 7e 23 68 67 d2 bf ed 8c d1 a5 22 ca a3 3f
       -0.28756144968065245 0.038651545278094314
0004c0 6f 6c e6 9b b2 f6 c1 bf 5e 11 4b 6c 06 7c 98 bf
       -0.1403411160689276 -0.023910618171400493
0004d0 4d 14 4e f8 2a ca b5 bf 6f 06 a7 c6 b0 f4 c1 bf
       -0.0851160865987179 -0.14027986240221277
0004e0 c2 9f ce 17 aa 7b d0 bf 39 6a ac 5c a3 11 c6 bf
       -0.2575478775493104 -0.17241327309678114
0004f0 97 8e 67 5c c1 b6 cb bf 8e b1 43 a7 ce 77 8e bf
       -0.2165147496408408 -0.014876951674943208
000500 bd c8 73 78 ab f3 a4 3f 0e 9d 05 cb 4e 99 c7 3f
       0.04092155309071319 0.18436608231716217
000510 b9 78 eb dc 88 db bf bf b1 89 f8 23 10 fc 93 3f
       -0.1244435824732787 0.0195162317232957
000520 32 a6 89 41 3f 2e 93 3f ef ed e9 6c 25 12 a0 bf
       0.018731106162169726 -0.03138844446672439
000530 fa f6 aa 85 c7 c4 8e 3f b9 ec 83 9e 06 7d b4 bf
       0.01502376438781593 -0.08003274316790766
000540 45 19 4a ae f1 17 b4 bf 41 93 ca f7 b2 45 d4 bf
       -0.07849035744775275 -0.31675409506197033
000550 85 4b 54 10 6c 17 ac 3f 0c af a4 74 ce 65 d1 bf
       0.0548661966260147 -0.27183877364107967
000560 47 4a c2 80 82 51 8b 3f 61 7a 5c 6f c4 42 a2 3f
       0.013339061312113943 0.035665644258405356
000570 31 ae 55 e0 cc 6d c9 bf 41 7a 0b a7 69 05 a5 bf
       -0.19866333917467352 -0.04105692066308509
000580 50 aa e9 36 52 d6 92 bf 4c d1 b4 c5 55 48 c2 bf
       -0.01839569530640467 -0.14283249047879065
000590 53 c9 15 5e fd 71 b2 3f fc e6 fc 90 4a 57 b6 bf
       0.07205184504508581 -0.08726945914977685
0005a0 06 32 fe b9 d6 29 a4 3f 34 ab 15 8d 37 e5 a3 bf
       0.03938170452520144 -0.03885816189980176
0005b0 dd 77 da c8 48 db b9 3f 96 22 33 8d 6d ce b2 3f
       0.10100226310393574 0.07346234032878338
0005c0 1e b2 43 82 1f ea bd bf 1c c0 95 07 ae 51 83 3f
       -0.11685368471416566 0.009433135611033143
0005d0 cc 6a ac c9 b3 d4 b6 3f 93 3d 97 13 e3 51 78 3f
       0.08918307946843668 0.005937468545610075
0005e0 35 b3 82 e2 24 42 c8 3f 6b b0 fc c6 d0 ee aa bf
       0.18951855716786672 -0.052603267946637576
0005f0 81 56 f6 9a 8d 7d c6 bf 5d 98 3f 9a 74 ac b6 3f
       -0.17570657793537595 0.08856896177130254
000600 bc db 3f 15 89 78 c0 bf 62 9d 3e d6 eb 80 aa 3f
       -0.12867845094271313 0.05176484098711388
000610 6d c1 28 5b e8 36 a2 3f 15 b2 91 33 d2 c6 b0 bf
       0.03557516205580922 -0.06553376921665006
000620 3f c8 94 27 71 b7 84 3f 05 d4 80 c7 17 e8 7a 3f
       0.010115512867376107 0.0065689972762372805
000630 07 5b 05 d1 f3 f4 cf 3f 5f f2 86 bd 94 ba d4 bf
       0.24966285425281162 -0.3238880015231071
000640 f3 8d b9 93 6f ae c3 bf 3c b0 c8 f8 65 c0 b9 bf
       -0.15376085961462102 -0.10059201549364699
000650 df 78 4b 23 7e 9d d0 bf 7f b6 c4 b0 c7 c9 a2 bf
       -0.259612593143073 -0.0366957095414877
000660 08 dc 40 f2 a6 ff c6 3f c2 4a 75 bf db 6c 6f 3f
       0.1796768839719507 0.003836087412915163
000670 f2 e5 e2 56 fb fd a0 3f 26 e1 a9 b6 ff e4 95 3f
       0.033187727314224605 0.02138137390508734
000680 8a 34 54 84 c1 87 98 bf 89 5f 50 ab 3a cd a1 bf
       -0.02395536775752708 -0.03476889935717426
000690 20 6e f1 ae 39 6e 6d 3f 5d 45 ec a6 b6 be 9c 3f
       0.003592598593554333 0.028071264207999536
0006a0 54 b0 73 64 be 01 d5 3f a5 0a 94 1f d2 07 c8 bf
       0.3282314282394101 -0.18773867170246664
0006b0 1b 45 b2 0c f5 69 b4 3f b0 5d ee 11 5b 00 bc bf
       0.07974177894563576 -0.10938042819758809
0006c0 e5 c6 62 d9 22 10 9c bf 0b 59 b6 29 ec 89 c9 bf
       -0.027405304449252283 -0.19952156101926052
0006d0 8c 33 a6 56 ad 2a d1 bf bb 67 93 0a 55 7e c5 bf
       -0.268229803675063 -0.16791785255810318
0006e0 ce 20 05 dd b3 5f 90 bf b5 91 48 87 01 d3 bc bf
       -0.01599007641314714 -0.11259469559497044
0006f0 6d a7 09 4a 8b 7c a6 bf 47 ab 0d 2a e7 9d c0 bf
       -0.04391894606381084 -0.12981881669414916
000700 2d f9 98 18 8b 32 cf bf 7e cd 38 f1 55 3f b2 3f
       -0.24372996045162534 0.07127892626959029
000710 2c f6 4f cc 8d 5d be bf ab bd e0 9a 7b 46 c7 3f
       -0.1186150192079018 0.1818384653320043
000720 fa c7 b8 21 55 dd bf bf 37 28 b6 f0 47 32 b8 3f
       -0.12447101662908713 0.09451722742792944
000730 77 b7 71 de fe 38 a9 bf d2 da c1 18 b3 3a c3 3f
       -0.04926296677955027 0.15022886952257025
000740 35 e4 e3 5f be 3f b8 3f 2c c4 30 9e 3d f9 ae bf
       0.09472265091962202 -0.06049530559574409
000750 09 4e 6b 35 8b d5 b5 3f 8d 04 e3 78 74 52 ad bf
       0.08528966955355356 -0.057269706494033824
000760 af 67 c0 34 d5 17 c7 3f f2 03 71 24 eb 49 c0 bf
       0.18041482043991894 -0.1272558143555496
000770 94 26 1d 0f 98 9c b9 bf 6f 44 74 82 5d bb a9 3f
       -0.10004568451872792 0.0502576085801899
000780 cd e1 27 90 e2 b2 d1 3f 58 b0 65 29 8e 5a b2 bf
       0.2765432746669177 -0.07169426451372496
000790 d8 fd 0d 02 0a f1 80 bf c2 b3 c7 d3 6f a7 bd 3f
       -0.0082722455861121 0.11583613319790145
0007a0 ca 57 ba e7 d9 3a c7 3f 4b f3 43 68 6b c9 99 bf
       0.1814834958537957 -0.025182417143685226
0007b0 ec 92 5e 94 be 7c 88 bf 3a fe e7 ce 4c 19 ac 3f
       -0.011956681158900882 0.054880523926837246
0007c0 59 28 7b 48 8e 82 c2 bf 50 86 71 df 00 fa bb 3f
       -0.14460924662700128 0.10928349929010861
0007d0 22 bf b2 50 cb 03 ad 3f 6f 86 86 07 69 4b d4 bf
       0.05666957244954875 -0.31710267767821326
0007e0 d7 9b 30 70 02 58 b1 3f 93 e2 33 bd 0d f3 aa 3f
       0.06774916876803104 0.05263560232737521
0007f0 27 df 73 1c 5d eb a2 3f 2c 4b f9 78 c2 84 bb 3f
       0.03695193264314716 0.10749450162374491

modules/net/7/parameters/bias f8 [1, 256]
000000 a3 5c 80 d0 26 f1 82 bf 21 5e 58 35 63 82 7d bf
       -0.009249022710760285 -0.007204425366146989
000010 3c 30 7c 92 8e 13 78 3f 52 b9 b7 3a 1e f0 7e bf
       0.005878025934873018 -0.007553213199101032
000020 8b 28 67 5c 4d 28 82 3f dd 0e 2b 06 51 c7 68 3f
       0.008865932829298614 0.003024729013619039
000030 a8 7f 3c 43 94 e9 79 bf 87 2e 8b a0 4d 95 93 bf
       -0.006326274062104099 -0.019124234126862063
000040 61 71 8f df 0f 6c 75 bf f9 ae d8 49 b4 dc 50 bf
       -0.005230009083757232 -0.001029182494117485
000050 e8 c5 2b 99 a5 93 85 3f 02 52 6e bd f9 b1 65 bf
       0.010535520302684412 -0.0026483419164355934
000060 31 5e e4 6f f6 73 66 bf 11 3b 26 18 59 31 54 bf
       -0.0027408421730219725 -0.0012324686109399
000070 e7 ee 96 69 90 40 3d 3f 32 58 1d 0c dd b9 65 bf
       0.00044635320372397733 -0.0026521031694910708
000080 b4 ce 95 22 06 e7 65 bf 7f c5 0d 25 d6 0f 7b bf
       -0.0026736373735561595 -0.0066068997410736454
000090 8e a8 1a 38 b3 3c 04 bf 11 fe e6 4a 4d 29 99 3f
       -3.859922345601881e-05 0.02457161683719106
0000a0 c4 2a 56 d0 51 dd 80 3f ac ca 4f a9 42 a2 78 bf
       0.008234633608272708 -0.006014118572226817
0000b0 43 dc 4f e7 5b 99 84 bf 69 7e 90 dd 8e ee 4c 3f
       -0.010058134075718544 0.000882930525339232
0000c0 74 0e e4 cc 8e 41 6b bf 5e 86 a9 0e dc 60 6c bf
       -0.0033271588391715016 -0.003464155005801924
0000d0 69 1e de 72 31 be 91 bf e4 eb 1e 9c 34 de 5e bf
       -0.017327091823544558 -0.001884032608798541
0000e0 fc 04 08 83 82 2a 91 3f b7 d4 46 76 a3 b1 8f 3f
       0.016763724563138446 0.015475537344949648
0000f0 7c 8b 5b 94 1a 2a 6b 3f ee 04 5a 76 ab a4 65 bf
       0.0033159751063619996 -0.0026419972298873306
000100 b5 1f 57 42 87 9b 37 3f 1e 0d ca f7 ec 8d 64 3f
       0.00036022236085075525 0.0025090816764660314
000110 bb 14 a2 3f d5 26 85 bf 43 4b 4a 0a 59 8f 81 bf
       -0.010327974323681812 -0.008574195505649867
000120 06 3b 78 ac 4e d7 85 3f 11 55 b9 51 c3 06 90 3f
       0.010664572370868718 0.01565079866698677
000130 96 df c8 db f9 a2 90 3f 2a 9b 0c e2 7e 84 9d bf
       0.016246704139319577 -0.02882574324317059
000140 4f 31 7c c7 6e c4 7b bf fb 56 a3 38 7b 27 96 3f
       -0.006779129725839119 0.021634984332954393
000150 c8 e5 b0 7e 45 a5 93 3f c2 49 3e a5 fc 59 8a 3f
       0.01918514810333763 0.012866948883844102
000160 c4 67 88 8e 24 fc 86 3f 3a 82 e9 ee ac 20 94 3f
       0.011223111724621655 0.01965589721874237
000170 30 e1 8e fc 60 71 7e 3f 96 44 5c 45 f2 07 53 bf
       0.007432345250826963 -0.0011615625311985115
000180 76 79 c1 67 08 15 57 bf d4 15 12 e2 93 4d 8a 3f
       -0.0014088232119529843 0.01284328015959605
000190 df af a4 f9 fc cd 83 3f 82 a1 89 e0 b8 a8 72 bf
       0.009670235031613515 -0.0045554372560235885
0001a0 4d 2d 79 a0 6a 2d 99 3f 2b 86 c4 ee 7d b1 8e 3f
       0.02458731274081787 0.01498697647963628
0001b0 77 34 68 80 dd c5 9d 3f f3 31 e5 3f 09 72 97 bf
       0.029075108492226023 -0.022895950817927568
0001c0 ff 32 7a 40 22 82 62 bf 52 79 39 a5 35 26 39 3f
       -0.0022593182546358777 0.00038374719335889263
0001d0 5d 96 e7 53 0e 29 70 3f f9 5e f5 55 ba a4 77 bf
       0.003945404022010016 -0.005772331117746659
0001e0 15 9a 80 4d 8e d9 76 3f b5 bb 3e 8c 01 a9 7a bf
       0.005578571195690181 -0.006508832975597058
0001f0 02 7b 3c 1b 88 a1 98 bf 8f 6b 4a da 78 6b 56 3f
       -0.024053694403046506 0.001368396778309775
000200 b2 57 d1 a0 44 68 a0 3f 04 05 94 18 f4 82 96 3f
       0.03204550231082183 0.02198392295850217
000210 3a 4c 03 c5 7d d5 79 3f 07 5b ff 8c 86 84 98 bf
       0.006307116782596595 -0.02394304500179614
000220 67 92 70 60 ae 7c 59 bf 14 ee 77 0d 1d e5 80 3f
       -0.001555605211032285 0.00824949929573563
000230 2d 24 b1 a9 ce c0 8a 3f f1 67 e9 8e 7c 9e 8d bf
       0.013063063195788949 -0.01446244536525751
000240 05 e7 fe 46 9b 2d 91 3f c9 ef 0c 7e 28 13 a0 3f
       0.016775537689432535 0.03139616526320272
000250 9b 24 ae 0c 2e f2 8d 3f 00 00 00 00 00 00 00 00
       0.014622077714891815 0.0
000260 68 10 f1 4a 0c 9c 59 bf 37 ba 31 6d 7a c5 97 3f
       -0.0015630836530968976 0.023214257158935516
000270 a5 f2 58 3f c1 ec 55 bf 07 6a f3 55 47 23 72 3f
       -0.001338185041631559 0.0044281755974346975
000280 f8 3f de 33 5b 3c 8d bf 5f 41 54 67 8d cb 95 bf
       -0.01427527668036531 -0.02128430312319673
000290 74 38 b2 47 66 10 70 3f c8 7c b9 58 67 44 96 bf
       0.003921889811989588 -0.021745314398114585
0002a0 af 12 83 45 47 e2 8a bf 17 f5 14 72 a2 c0 7d 3f
       -0.013126904305303581 0.007263788750887976
0002b0 0d b8 0e ac ef 52 77 3f 00 00 00 00 00 00 00 00
       0.0056943285170927395 0.0
0002c0 72 e2 fa 66 88 eb 85 3f e5 e3 a0 87 ef 46 87 bf
       0.010703149454785097 -0.011365767790367751
0002d0 13 6d 3c f2 c6 16 84 3f 15 a6 7a 25 c1 70 87 bf
       0.009809068934876685 -0.011445530849715483
0002e0 ed 49 8f 1a 3c 05 7e bf d6 f8 7b 9b e9 af 31 3f
       -0.007329211025494759 0.00026988461785028056
0002f0 56 49 9a 7f 62 41 8c bf 72 d2 e4 7a 5e 08 a2 3f
       -0.01379658653175812 0.03522010088127993
000300 5d 27 de a7 82 b5 82 bf f1 5b e6 8f 74 de 62 bf
       -0.009135266063612308 -0.002303340587967544
000310 3f 6c 82 20 f0 43 92 bf 9e 3e 33 ab 3c 43 96 bf
       -0.017837287887783267 -0.021740863751630195
000320 be 0a e5 76 7e d9 8f bf 17 7a 0b 92 8b 19 90 bf
       -0.015551555636766575 -0.01572244719397461
000330 7d cd 66 ac 38 ba 92 bf e5 0c 3e 4e 3a 5e 53 3f
       -0.018288503191525408 0.0011821336165390103
000340 5e e1 3b 31 e8 45 77 3f 25 97 66 43 6a 31 81 bf
       0.005681902886628924 -0.008395033056170906
000350 00 00 00 00 00 00 00 00 d8 f7 40 52 3b 2a 7d 3f
       0.0 0.007120353435366732
000360 aa f5 11 6c f2 71 89 bf 6f af 8c 95 b5 72 87 3f
       -0.01242436783126773 0.011449259401693472
000370 92 6e d4 ea d9 c5 83 3f 67 03 65 25 e1 93 6b bf
       0.009654715041100635 -0.0033664128669958385
000380 83 13 52 22 d5 a5 83 3f 04 07 cc d5 b0 39 1f 3f
       0.009593644246942428 0.0001191152745825507
000390 86 8b 40 88 1b b4 82 3f 8f 94 3a 09 67 28 92 bf
       0.009132590385041228 -0.017732248247416534
0003a0 75 f0 b0 39 4c dd 8d 3f e8 10 7f 00 27 52 99 bf
       0.014582248221010933 -0.024727448849959283
0003b0 36 85 71 86 3e 6d 63 3f ee f3 d1 9b 91 54 86 3f
       0.002371427649948156 0.0109034896543054
0003c0 f2 ed 82 d1 bb 2b 87 3f 75 32 d2 9c cd 18 84 3f
       0.011313884097368086 0.009812933300304064
0003d0 68 58 b3 47 e9 85 9f bf 7c ab 0c 80 2d d7 91 3f
       -0.030784268380408625 0.017422400417824488
0003e0 27 48 37 61 18 40 9e 3f 81 e3 de 23 a6 8e 62 3f
       0.029541378911581397 0.00226528596155301
0003f0 a2 3c 10 aa 5a 41 9d 3f 90 66 5b 51 47 43 44 3f
       0.028569618825767258 0.0006183717948388835
000400 21 b2 36 02 ac e4 52 bf 1d 1f ef b8 43 02 99 3f
       -0.001153152444071222 0.02442270103691079
000410 35 6b 98 b6 f6 0a 64 3f f0 05 4b 7b 34 a8 90 3f
       0.00244663416084503 0.01626665117760767
000420 8b bd ef e4 73 6a 80 3f 91 a0 d4 0e 5a 61 9c 3f
       0.008015542434775444 0.027715117602526155
000430 6c 12 9a 9b 4f f7 83 3f 09 4f 05 03 b4 d0 7e 3f
       0.00974905198678152 0.007523253604023735
000440 9b c0 20 68 4c c6 90 3f 8b a7 b2 9f fe 2c 77 3f
       0.016381448607888243 0.005658144592567536
000450 50 27 c9 20 f9 2d 71 3f b9 a6 94 f1 8b 97 51 3f
       0.004194234043618142 0.0010737291943975615
000460 91 cf c3 ea 42 09 7a 3f 68 58 12 40 63 7d 65 bf
       0.006356488604286074 -0.0026232660753278576
000470 15 db 0b 6e 2d 27 78 bf 90 4f db d1 7b 47 72 3f
       -0.005896737537787873 0.0044627033909882124
000480 4a a6 84 1a 67 95 52 bf fb 89 8b d5 d6 15 87 3f
       -0.001134253203483831 0.011272123710516438
000490 1f 19 b4 47 70 9d 82 3f 65 01 c4 62 12 04 43 bf
       0.009089352787225167 -0.0005803193830900387
0004a0 02 03 72 3b 66 93 89 3f 00 00 00 00 00 00 00 00
       0.012488173188331956 0.0
0004b0 9d 54 f7 77 f3 67 8e 3f 67 d0 ec 9e 3d 64 85 bf
       0.014846708391738789 -0.010445100224025517
0004c0 a6 74 83 a3 4c 81 30 bf 73 ba 9a 9f 1e 4d 92 bf
       -0.0002518474680196038 -0.017872313014488172
0004d0 f7 b8 83 84 fc 8b 63 bf 39 25 e8 4a 91 dc 80 bf
       -0.002386086653238025 -0.008233199213480634
0004e0 a2 4f 27 52 95 a9 9e 3f 54 6b 54 72 d4 9c a2 bf
       0.029943783892875005 -0.03635276694895731
0004f0 5d 1d bc bf b3 cd 93 bf ef b8 a9 03 32 24 93 bf
       -0.01933937890774239 -0.01869276187283558
000500 ed 2a de ea 0d 89 96 3f a7 31 b9 3b df 4a 90 3f
       0.02200719591159388 0.015910614032962702
000510 90 1e 85 ae bf 58 6e bf 65 3b 9f 24 51 d3 8d bf
       -0.0037044280799454835 -0.014563211374392268
000520 ca bb 51 31 6a a7 80 3f 3c d2 03 9e 21 d4 64 bf
       0.008131818418602683 -0.002542558344538896
000530 a9 6f 0b 44 76 d6 54 bf f4 5f db ae 01 89 91 bf
       -0.0012718348445366157 -0.017124201104564876
000540 3a fe ce 72 47 71 9b 3f 9c c3 a5 db d2 34 8a 3f
       0.026799312956198508 0.01279606564341567
000550 06 5e fa 72 51 1f 83 bf d9 d5 53 c8 c9 6a 9f bf
       -0.009337078400945675 -0.030680802204150346
000560 34 d8 c1 42 0f 95 94 3f 13 ca 8a 54 4c 39 92 3f
       0.0200998672957768 0.01779670015339192
000570 fa e0 1a 9c 26 55 6c 3f ba 7b d3 9a 57 ff 84 bf
       0.003458571824776266 -0.010252651607911879
000580 9b 6d bc 25 ad e1 7b bf 2e b8 33 86 04 3d 8c bf
       -0.006807018620544804 -0.013788256974717052
000590 26 4c 7f 43 13 00 8a bf 0b f1 7e 18 19 41 97 bf
       -0.012695456025460027 -0.022709266777142505
0005a0 3e 25 8e 67 b7 c5 6f bf d7 b6 56 41 48 a3 84 bf
       -0.0038784582251919766 -0.010077061170558661
0005b0 e9 61 bc 88 79 36 93 3f db 83 5f 1f 6d 99 5b bf
       0.018762492151923302 -0.0016845288896478658
0005c0 12 e8 5f 25 aa 80 8e 3f ba 36 8d 89 be 4a 83 bf
       0.014893845811446513 -0.00941990716242046
0005d0 bd cb 9e 58 33 42 9e bf 00 00 00 00 00 00 00 00
       -0.029549410137132293 0.0
0005e0 30 a7 a1 42 88 4f 86 3f f3 a6 47 0a 19 da 9d 3f
       0.010893883260184006 0.029152289631304517
0005f0 52 7c 06 2d 88 ab 72 bf c8 c3 7b cd 2f d7 86 3f
       -0.00455811685279091 0.011152623613698412
000600 52 81 07 af 72 c6 85 bf 00 00 00 00 00 00 00 00
       -0.010632415739508492 0.0
000610 4a a8 da 9d 2a 7d 90 bf ab 70 c3 c0 4c bb 93 bf
       -0.016102472195292962 -0.01926917959723144
000620 d2 0f 37 b1 75 a5 93 3f fb 0d e4 49 49 36 9b 3f
       0.01918586629996339 0.026574273238123763
000630 55 d6 91 e8 15 a9 53 3f a5 25 8d 37 c2 e8 8b bf
       0.001199981112475786 -0.01362754566220554
000640 9d e8 3f c7 6b c6 81 3f 12 0d 20 6b 71 46 66 3f
       0.008679239290348579 0.0027191367344144924
000650 af 89 77 1b b2 cb 70 3f dc e6 38 ff 09 7b 90 3f
       0.004100509387600245 0.016094356730014123
000660 05 3c 22 34 e7 01 93 3f 31 34 52 5f 63 7d 35 3f
       0.018561947400083784 0.00032790828783718905
000670 cc 07 3a 2b 19 10 73 3f 02 80 21 be 4b 0d 77 3f
       0.004654024425350966 0.0056279143046538155
000680 00 00 00 00 00 00 00 00 f7 06 57 27 02 d0 85 3f
       0.0 0.01065065081172943
000690 37 a4 2a 0d b1 c6 85 3f 45 02 e4 4a b8 0f a9 3f
       0.0106328804152601 0.04894805826370833
0006a0 1a 5f 25 f0 22 c1 95 3f 62 bb 69 c9 cc 52 89 bf
       0.021244569690082128 -0.012364959618222652
0006b0 21 eb bd 31 5e 31 89 bf 2a 55 86 5d f2 dd 77 3f
       -0.012301193135262846 0.005826899280142054
0006c0 e1 b2 03 8a 0c 42 94 3f e7 cd d3 23 7c 53 78 bf
       0.01978320686696378 -0.005938992425615442
0006d0 4a a3 bf 53 d1 30 93 bf fd a7 45 39 69 2b 66 bf
       -0.018740912186248772 -0.002706246867252736
0006e0 4d be a6 a5 ec a4 81 3f c6 99 69 db e6 50 5e 3f
       0.008615349583890675 0.0018503431762383212
0006f0 29 c0 68 30 29 b7 63 bf 58 8e 81 95 3c ea 61 3f
       -0.0024066738581254477 0.0021868880540283735
000700 a3 20 02 4a 5f ff 79 bf 00 00 00 00 00 00 00 00
       -0.006347057555224608 0.0
000710 e7 a4 fa b2 ac 27 82 bf 5d 78 ae 65 50 d9 81 3f
       -0.00886473580551912 0.008715274909089904
000720 54 1b 1f 39 5a 98 95 bf 9a 9e 9d 23 40 ac 85 bf
       -0.021088990913791975 -0.010582448088555286
000730 1f fe 0d 8a 61 b3 78 bf 32 19 9e 86 6f 0b 94 3f
       -0.006030446064755362 0.019574873534588373
000740 d2 da 04 5f 1b e7 6a 3f 33 55 35 41 64 8d 82 bf
       0.0032840284913179052 -0.009058745613098473
000750 02 eb bf 3e f5 29 7c bf d1 c2 54 44 2e 43 7d 3f
       -0.006875951756223799 0.007144146661901289
000760 4e 1b f6 68 bb eb 81 bf a3 7d 93 38 58 7f 91 bf
       -0.008750404492060018 -0.017087343648083963
000770 56 80 cf ba 38 3b 71 bf 9b ee e4 ed 50 55 73 3f
       -0.004206868744375999 0.004720035676935598
000780 f5 89 4e 98 26 61 7c bf 9a 7a f9 d1 37 d4 6d 3f
       -0.006928587686078282 0.0036412325132880287
000790 6f bc 3c 2a c8 87 8e 3f 87 73 bd 6d e5 83 48 bf
       0.014907420910814843 -0.0007481451279819231
0007a0 78 bd a9 89 9e 33 80 bf d8 11 f3 3f fc bf 87 bf
       -0.00791095597852974 -0.011596651746352757
0007b0 59 09 1a 9c 8f c7 7b bf 1f c1 36 a4 dd bd 80 3f
       -0.006782113052056304 0.00817464024916653
0007c0 31 4d f7 9b 63 f1 94 bf 73 07 d3 58 ed 94 80 bf
       -0.020452076334391115 -0.008096555970386032
0007d0 b5 6d c6 f6 ff 60 36 3f 8d 33 95 64 90 bc 96 bf
       0.00034147500152822567 -0.02220368970783997
0007e0 b9 6f 20 21 b9 5d 58 3f f5 6c 2b ef f2 3e 6a 3f
       0.001487189093046999 0.0032038445291228076
0007f0 43 cf 58 9c 41 08 7c bf 00 00 00 00 00 00 00 00
       -0.006843811313547668 0.0
