examples/mnist/mnist_model.npz (npz, 852134 bytes, 8 tensors)

conv1.weight f8 [6, 1, 5, 5]
000000 b6 23 2d 0e 11 4e e7 bf 11 28 e5 20 f3 22 be bf
       -0.7282796170121546 -0.11772079041580265
000010 81 7a 5f e1 bb 94 c8 3f 59 e5 9a 1b 03 90 c7 3f
       0.19203899864711008 0.1840824017324774
000020 1f c7 b1 d5 b8 0f d9 3f 23 cf be 3b 2e 50 dc 3f
       0.391584595380765 0.44239383539683014
000030 22 2f 14 56 28 06 da 3f 51 9f 6d 1e 77 44 df 3f
       0.40662582784783485 0.48855379077439404
000040 b0 3b f1 49 69 51 b7 bf 3f f5 19 3b 3b 94 c6 bf
       -0.09108598761780118 -0.17639866243181676
000050 8d a0 ab fb d2 6b d4 3f bd 21 61 c9 e5 9b d4 3f
       0.3190810640067035 0.32201523462256515
000060 7d 4b e6 1c 72 9a af bf bc 81 84 34 8b 90 e9 bf
       -0.06172520258691969 -0.7988945031866517
000070 fd 22 92 40 72 1a d0 bf 8b e7 36 77 9e d2 d1 bf
       -0.2516141539168045 -0.2784801639751257
000080 95 f1 c5 0f 67 f3 ae 3f aa 6a 64 b6 ee 3b c3 3f
       0.060450764346543874 0.1502664938532992
000090 5f 89 d5 ab 7c 70 df 3f 6d cc bd c0 6d 83 71 bf
       0.4912406614368105 -0.004275730821848273
0000a0 8d 21 f1 e0 84 e2 eb bf 00 8d 51 f6 9a 73 b5 bf
       -0.8714012521168556 -0.08379524720799125
0000b0 43 27 60 76 a1 ba dc bf c5 80 7e ba 03 d1 9a 3f
       -0.44889103469960306 0.02618795228738759
0000c0 0c c5 3c 59 c6 5e ae 3f 45 3e 70 4c 4b 35 d2 bf
       0.05931682433436877 -0.2845028158635368
0000d0 9f cd c6 a7 d4 4f e4 bf a6 85 8b 7d 1a 48 d8 bf
       -0.6347449566732627 -0.3794008470559568
0000e0 e1 ee d9 11 66 a1 ca bf 4a ca 18 c2 88 b4 b4 3f
       -0.2080504977383191 0.08087973345463087
0000f0 38 77 c7 d3 af 3b de bf da 61 e5 7c 39 5b d1 3f
       -0.472392994704808 0.27119290539624574
000100 30 c9 76 0f fa c9 e9 3f 6a 2b 8a 04 dd 9e be 3f
       0.8059053709060091 0.11961156235535744
000110 8b 03 1e 25 95 2d c6 bf 9d a4 8d a1 68 cb dc 3f
       -0.17326607048383055 0.4499150827092054
000120 59 d8 0d ab e9 45 d1 bf 8d 47 e5 5e 82 48 e2 3f
       -0.26989213661670913 0.5713512280874383
000130 14 21 49 b2 35 49 d8 bf eb 66 12 3e 3e 37 d7 bf
       -0.3794683686324032 -0.3627467733546001
000140 80 4c a7 ef 72 28 c5 3f 9f e2 4b 72 91 b0 e9 bf
       0.16529690458137125 -0.8028037292816242
000150 cb f6 58 8f 80 f6 d4 bf 47 d2 56 24 f0 1f c6 bf
       -0.32754529951840244 -0.17284967207310073
000160 b9 61 eb f7 b7 f0 d5 3f bc 92 3c 5f 00 77 ed 3f
       0.34281729899296526 0.9207765445795171
000170 fd 5d 5d af 46 0b d6 3f 0a 68 b5 f0 21 20 c1 3f
       0.34443823934040535 0.13379310849524045
000180 34 a7 d4 cf d7 58 e3 3f 2c 0b a1 7d 6b 56 98 bf
       0.6045950946038148 -0.02376716570166619
000190 a6 e9 45 84 2a 1c bb 3f 67 1b e5 0b 96 b5 de 3f
       0.10589853028606075 0.4798331371461501
0001a0 f5 21 54 4b f4 89 d8 bf b5 93 da 05 40 d4 d3 3f
       -0.38342006069481666 0.3098297173658538
0001b0 a9 be 01 2f bf 43 e6 3f b9 b5 8e 6f d1 27 aa bf
       0.6957698743917337 -0.05108503805909543
0001c0 cd 0d 35 38 49 93 dc 3f 54 c1 c7 42 86 9c b3 3f
       0.4464896248720976 0.07660712366464867
0001d0 e5 2a 89 f5 9b e1 c8 bf ca 18 b0 90 3a e0 e0 bf
       -0.1943850468545271 -0.5273716760573504
0001e0 b0 5b 3e 90 9c ac ab bf a2 6f 5c f3 87 87 df bf
       -0.05405129681383103 -0.4926471592495948
0001f0 26 9e 34 99 5b 0a bd 3f 3c 77 61 0a ec bb ba 3f
       0.11343929758424362 0.10442996266780552
000200 04 a5 95 d5 4c ca e2 bf 0e f7 ce 76 7f 02 bb bf
       -0.5871948405812479 -0.10550686503026105
000210 95 44 86 7a 1c 34 cd bf 36 ee b2 72 2c ce e4 bf
       -0.22815280897751636 -0.6501676788533988
000220 2c 62 82 f8 2f 6b e1 3f ce 1f d5 46 c5 3c d1 3f
       0.5443343976685973 0.2693341438030047
000230 78 b1 cc a8 38 70 d9 bf 43 9b 1a 3f 75 f5 e8 bf
       -0.3974744461472919 -0.7799631340502419
000240 69 1e c6 af 9c 86 db 3f 68 1f 33 f6 ed 49 b2 3f
       0.43009106793804236 0.07144057522520841
000250 f6 82 99 b5 b6 6f dc bf 5e ea 09 4e cb 53 e2 3f
       -0.4443184636530043 0.5727287792390816
000260 c2 51 a4 7d ff 47 de 3f d1 1a 2c 2b bc 4c ea bf
       0.4731444098445331 -0.8218670695503879
000270 a0 07 c8 9a 61 09 d6 3f 86 83 f0 27 b2 e4 e3 bf
       0.34432258715980346 -0.6216669826572889
000280 c9 70 cd 60 8b c4 94 bf 27 a2 cb 95 d2 de a0 3f
       -0.02028100756011567 0.03295000151212362
000290 00 22 22 a8 a9 91 e2 3f 94 e6 f6 a8 59 4e e3 bf
       0.5802810939649703 -0.6033142376029041
0002a0 44 23 8a f6 a0 c8 e1 3f 83 d1 55 20 7b 82 dc 3f
       0.5557408156611037 0.4454639259122574
0002b0 1e fd 38 e1 ff 2b b2 3f 88 5d 1d cf 9c f4 dd bf
       0.070983879552831 -0.46805496431394333
0002c0 50 a8 fe 81 44 be ba bf fc af ff 3c 75 68 ea 3f
       -0.10446575330448238 0.8252512160665897
0002d0 8d c8 f0 3a 08 5e d2 bf 4b 71 14 48 85 9b e1 bf
       -0.28698926692880705 -0.5502344520387309
0002e0 4e 84 9e f0 6f 38 eb bf b9 dc 48 af ae 07 e0 bf
       -0.850639314612758 -0.5009377883460707
0002f0 ae 7c 27 f9 2c a1 d1 bf f3 59 16 eb ec 4f cf 3f
       -0.2754623826167045 0.2446266315352684
000300 d6 b8 e0 0e c0 74 d7 3f 06 63 7c 9c 39 b2 df bf
       0.3665008683482375 -0.495252993410347
000310 86 03 88 83 28 53 d9 bf 09 38 61 f6 05 7c dd 3f
       -0.3957005772099865 0.4606947809269291
000320 9b 94 d5 f7 2b bf df 3f 03 51 8e 2e 62 bd 9c bf
       0.4960431976563286 -0.02806619080691154
000330 12 9d 10 79 9d 39 da 3f a1 b3 c4 88 9c 16 e0 3f
       0.40976654837364024 0.502760188222613
000340 fe 95 11 5e 69 97 f9 3f 41 f7 3e 12 24 1e e7 bf
       1.5994657206114193 -0.7224293094984447
000350 7e a0 ee 6f c7 fd b4 bf 59 81 e7 42 e1 2a d1 3f
       -0.08199736101835417 0.268242183052299
000360 b2 32 95 50 63 a5 c2 3f e6 88 95 17 df 22 e1 3f
       0.14567223963458314 0.5355067692401263
000370 ea 53 6a 89 7b 9b d1 bf c6 3c f0 44 55 56 b4 bf
       -0.27511490268199046 -0.07944233830515932
000380 0a 9a 70 70 e5 3c d2 3f 6d 68 3b d6 2f 4b d1 bf
       0.28496681194738527 -0.27021404191112347
000390 3f 9a c9 ae 7f 26 e7 3f 2e 84 6e a9 d1 01 c0 3f
       0.7234495557611992 0.1250555112174267
0003a0 d0 6b 91 fb 2e 8a d3 3f a1 4f 1d ce a3 ec e5 bf
       0.30530905310814394 -0.6851367021249538
0003b0 d7 82 43 e0 f5 a3 f1 3f 91 c6 69 05 64 0d d3 bf
       1.102529407529962 -0.2976923039305826
0003c0 87 2e 68 07 c8 0a e3 bf 06 9c 5b 7c 6d 8f bc 3f
       -0.5950660843531786 0.11156353269653616
0003d0 63 14 1d 3b 73 d9 e6 bf fe 1e ad 14 73 d6 d8 3f
       -0.7140442041933394 0.38808896083035893
0003e0 c9 55 bc 82 e8 8e d1 bf a3 d1 16 a2 15 94 be 3f
       -0.27434742705494536 0.11944709021810822
0003f0 06 72 97 21 45 37 f1 bf 7a c3 45 b0 14 3f f3 bf
       -1.0759936630412326 -1.2029005895276144
000400 7b f8 82 bc eb dd dc bf d4 97 0b db 82 0c cd 3f
       -0.45104497346245126 0.2269443101460512
000410 ce 7f 11 85 64 81 bc 3f f5 99 81 a2 f0 69 e7 3f
       0.11134937523593111 0.7316821264219572
000420 65 bc 59 12 2d 04 b5 3f 63 4d 0d 91 8e 19 de 3f
       0.08209497163783082 0.4703098694346492
000430 26 5c b8 2e 3f e0 b9 3f 42 df 6b 66 4a 79 b6 bf
       0.10107798472050486 -0.08778824806711064
000440 c1 4e a8 13 a0 2b e6 3f b4 80 a2 a4 4c 86 e0 3f
       0.6928253539976695 0.516393968155191
000450 58 70 5b 84 d6 3f e7 3f ec 8b f2 b3 1b be d6 3f
       0.7265427193738203 0.3553532845782559
000460 ac d1 60 e9 12 92 d9 3f b2 b0 13 d2 b6 a0 58 3f
       0.3995406416973093 0.0015031609876201943
000470 a7 0b 4f 8e 4e 87 d3 3f a5 41 17 ab af 41 d5 bf
       0.30513347527829143 -0.3321341677483594
000480 5a 5a c1 f9 40 d6 d4 bf 08 d2 48 cc 53 5d d0 3f
       -0.32557701482929746 0.25569624852803985
000490 cb 10 52 9d 5d da e2 3f bf ba 74 82 ed 04 ca 3f
       0.5891559670131071 0.20327538366242057
0004a0 b0 85 84 9d ff b7 e0 3f d2 a2 91 3f bb 83 ce 3f
       0.5224607540623563 0.23839512447309247

conv1.bias f8 [6]
000000 00 00 00 00 00 00 00 00 00 00 00 00 00 00 00 00
       0.0 0.0
000010 00 00 00 00 00 00 00 00 00 00 00 00 00 00 00 00
       0.0 0.0
000020 00 00 00 00 00 00 00 00 00 00 00 00 00 00 00 00
       0.0 0.0

conv2.weight f8 [16, 6, 3, 3]
000000 fc 3f e4 28 9d 37 b0 3f 2b 26 45 b3 4f 0a dc bf
       0.06334860084848509 -0.4381293535885528
000010 5c 71 8f 44 66 32 d7 bf 1e 4f d7 ac 2a 17 d8 bf
       -0.36245114035934534 -0.37641398314484487
000020 94 ad a0 28 f4 a1 d2 3f 71 1c 45 88 84 1c bb 3f
       0.29113487212699707 0.10590389563468407
000030 72 38 39 ae fa b1 c7 bf 24 cb 4c 3a 1b 39 c9 3f
       -0.18511899477966015 0.19705524775198413
000040 bf cd 6a 89 c3 e7 d1 bf 5c e5 e3 f0 59 3b d5 3f
       -0.2797707406964171 0.33174751781878853
000050 37 cb 06 30 40 43 44 bf 4f 50 d6 01 55 2e 85 3f
       -0.0006183684745820543 0.010342277639928591
000060 2b 41 bb 65 8a f1 af 3f 55 30 c1 fc d2 2d d8 3f
       0.06238968364562177 0.3777968853289669
000070 1b 7f d3 0b 1b 05 d0 3f 60 74 7a 92 fa ec cb bf
       0.25031162409685387 -0.21816951896917924
000080 42 3d 2d 28 7b df ae 3f 83 e3 a5 2e 53 20 95 3f
       0.060298775343307756 0.02063112232415022
000090 15 d9 e2 08 66 3b dc 3f 5b 89 2c dc ed 0f a6 bf
       0.4411254011896671 -0.04309027969999831
0000a0 d2 36 78 65 1e 91 80 bf d6 db b6 a4 90 29 a8 bf
       -0.008089292022329362 -0.04719211588547238
0000b0 a8 11 71 7f 56 2d d7 bf af 89 f8 6f 1e 1d b1 bf
       -0.3621422047183622 -0.06685056909240104
0000c0 52 19 92 e5 30 d2 dc 3f c5 d7 a1 5f 9f 88 d7 bf
       0.4503290407086712 -0.3677137788685026
0000d0 85 b1 dd 54 51 90 d2 3f 40 7b 8a 16 2b 43 b8 3f
       0.2900584534425195 0.09477490711513514
0000e0 49 2b bf 85 c5 43 c5 bf a0 72 bb 6c fa 23 c2 bf
       -0.16613072424510225 -0.1417229681891472
0000f0 1d be 8f cf c2 04 d7 bf a0 61 ee 03 d2 0f d1 bf
       -0.3596655871360513 -0.26659059890655534
000100 ed eb b7 cc 41 40 cf 3f 88 83 9f 00 4b 20 a6 3f
       0.24414846893327483 0.04321512587171755
000110 a2 02 c3 3c 1b 6e c6 3f 22 fd 20 20 6c 97 a7 3f
       0.17523518053896675 0.04607713596532849
000120 21 27 9e 36 a7 b6 d3 3f 00 0d 4c 66 88 61 e3 3f
       0.3080232652069857 0.6056558607091631
000130 2f 65 e0 53 4a 52 8a bf 58 ee da 30 97 6f e8 3f
       -0.012852268871983511 0.7636218980982887
000140 88 87 02 f0 29 06 d3 3f ff 21 ba 35 cb 41 c7 3f
       0.29725120962586304 0.18169536708252562
000150 30 19 13 03 88 2b c0 bf 4b 1f e1 d9 32 08 d1 bf
       -0.12632846975447753 -0.2661254050949437
000160 c5 95 21 c1 a5 bc e1 bf cf 43 6f e6 02 74 c2 3f
       -0.5542782566159806 0.14416538478556482
000170 71 11 b9 84 a2 94 e3 3f b0 d2 62 98 e1 5c e2 bf
       0.6118939010853365 -0.5738380409516903
000180 15 76 4f a6 fc d6 bd bf 6b 52 46 38 84 4c cb bf
       -0.11656168995201484 -0.21327259776866767
000190 8e 7d 6c 57 40 2d c7 bf 52 41 d8 de 19 60 d8 3f
       -0.18106846112003122 0.3808655430048208
0001a0 ca fd f8 ee f0 8c c7 bf eb c1 a4 36 4e 26 cd bf
       -0.18398868244729122 -0.2277314917387366
0001b0 08 a8 88 df c2 39 ce bf e3 28 d1 27 de 8c a8 3f
       -0.23613773264634141 0.047949735985257445
0001c0 d7 77 66 11 2d 92 a9 bf a3 72 6c 58 45 1e c1 3f
       -0.049943359731727525 0.13373629396018769
0001d0 30 4a f8 92 48 fc c0 3f 74 07 db f0 59 38 be bf
       0.1326990811945321 -0.1180473530794453
0001e0 ea 0e 61 24 f9 6c c8 3f 2e 9e 29 47 0a 6f bc 3f
       0.19082559849095243 0.1110693382012122
0001f0 ee 03 18 73 10 bb e9 bf a8 8d b0 b1 c0 fb b7 3f
       -0.8040849922109581 0.09368519151808263
000200 2f d0 c6 7d 18 62 d1 bf fc 65 3f 83 73 73 e1 3f
       -0.27161228449699854 0.5453431666784918
000210 a9 08 c1 92 1c ab d7 3f f5 bb 13 f9 7d b1 af 3f
       0.3698188241143137 0.061901032118718925
000220 26 23 72 4a 43 46 bf bf 0d 5a 2c b9 3d bb a0 3f
       -0.12216587607884985 0.03267853627601278
000230 18 aa 0b 00 4f 21 9e bf 5d 8c 99 37 7c 76 e2 3f
       -0.029423937204152123 0.5769635282453113
000240 6f a0 e5 08 74 8a ba bf 83 9b 98 fc 4c 99 c0 bf
       -0.10367512910090836 -0.12967836698336663
000250 eb 26 51 a8 73 ab 8b bf 32 8b f2 9c e9 e6 d3 3f
       -0.013510612081649017 0.31096878363512126
000260 b2 44 bd 35 8c f8 cd 3f 26 b9 a4 61 4e 4e e3 3f
       0.23414757369986244 0.6033088595484386
000270 25 e0 56 90 9f 4d b0 bf e0 0f 15 eb d1 37 a4 bf
       -0.06368443750295734 -0.0394883727517763
000280 fa d2 2f d8 36 56 c8 bf 15 64 c3 8b 49 a1 a3 bf
       -0.19013104969021538 -0.0383398993596488
000290 74 c5 a6 4f 92 8c b4 3f f9 0d e9 ff 35 b8 d3 bf
       0.08026995129218567 -0.30811834326979654
0002a0 cd a8 c6 e1 85 89 d4 bf 28 40 40 18 bc 6a b7 3f
       -0.3208937363475684 0.09147239296021381
0002b0 d0 ab d7 f2 08 dc c7 3f 17 11 90 0f 9e f7 78 3f
       0.18640243394415146 0.006095521378487476
0002c0 5c cd b7 92 02 2a dc bf b6 a8 72 66 38 05 c0 bf
       -0.44006409004142255 -0.1251593113168547
0002d0 54 9b 3b e5 d6 8e cd 3f 4a bd e4 d7 5a f8 b7 bf
       0.2309216136265727 -0.09363334437215545
0002e0 54 3b dc 6e dd b9 da 3f 98 db 2a 71 0f 7a cc bf
       0.4175942976589131 -0.2224749853682766
0002f0 2c fe d2 d3 8c 39 d8 bf 1a 02 ec 9b 43 58 c0 3f
       -0.378512579783975 0.12769360650419587
000300 81 a7 75 d4 21 d5 be bf 71 b4 27 9a 19 2c bc 3f
       -0.12043963849069252 0.11004791272689986
000310 29 db 62 70 d6 ab c8 bf 40 3a f5 a3 11 5e c2 bf
       -0.19274406898122123 -0.1434957552505285
000320 0e 7e 0c 86 38 6a bc bf f0 43 ec d2 3f 97 9f 3f
       -0.11099580071140044 0.030850407837593907
000330 62 63 ab 4f 82 b2 d1 3f 8b b0 83 10 ed 11 cd 3f
       0.2765203264257733 0.22710955911987116
000340 7f fd 78 ce e8 55 c2 3f 9e c0 2a f2 11 73 dd 3f
       0.1432467468421059 0.46014832162019015
000350 9d e1 e7 6b 67 b6 d0 bf 7c f7 87 09 3e 7e d0 3f
       -0.2611330560462422 0.25770522051595157
000360 b6 19 bf 76 24 e1 c0 bf 87 d4 74 53 9a 41 be 3f
       -0.1318708019081904 0.11818851983555777
000370 90 bf 6c f8 50 54 c2 bf f4 5a 78 51 01 ed 97 3f
       -0.1431981289874753 0.023365040395300476
000380 ec 81 37 3b 99 75 c0 3f 9e 4c 11 29 f9 e1 a3 bf
       0.1285888232369098 -0.038833414328700785
000390 5b bd 89 00 fe d7 c6 bf 7b f3 d5 ef fc 99 c9 bf
       -0.1784665587069679 -0.20001184187631424
0003a0 02 f4 09 14 0e 2d d9 bf f3 cd 0b e7 7f 96 d6 3f
       -0.3933749385540183 0.3529357677755051
0003b0 d0 cd ea e1 c3 9d ab bf df 28 ea 98 88 f4 e1 bf
       -0.05393802769449574 -0.561100290929314
0003c0 45 88 bb a3 4a 7d ca bf ff ea 75 59 4e e4 be 3f
       -0.20694859499696086 0.12067117389771552
0003d0 06 a2 ce b0 ea 53 dd 3f 80 2c 75 11 a5 d6 c2 bf
       0.458246872580759 -0.14717543938090571
0003e0 b6 68 93 3c da d3 e1 3f 2f 8a 17 c2 84 96 e1 3f
       0.5571108992692391 0.5496238509043162
0003f0 8b 49 23 5c 20 9f d7 3f 1e 1e 5f 5e 8f cc ce 3f
       0.3690873050483325 0.24061767681108476
000400 0e 81 fa a5 bb ae db 3f 50 1e 65 b4 9f 40 c4 bf
       0.4325398560413455 -0.1582221632800036
000410 ad 21 33 31 4e 19 86 3f 03 04 51 bd d4 b0 b7 3f
       0.010790453793007549 0.09254197713836736
000420 aa b6 c5 1b 42 fb d1 3f f9 dc bf 03 fc 00 d7 bf
       0.28096058570995786 -0.3594350849738955
000430 3a 6d 38 af 70 37 d6 bf 29 00 6c 37 1b 5c d8 bf
       -0.34713379966133895 -0.38062172329228133
000440 50 c6 90 bc 08 d7 c7 bf 60 01 30 cf 14 4d bd bf
       -0.186249820778857 -0.11445741709031187
000450 fb 99 99 83 f0 c4 b0 3f 62 53 d8 c9 71 d7 df 3f
       0.06550505841151015 0.49752468787601434
000460 5e a4 41 94 4d 8e 96 3f f8 ca 4d f7 93 f9 c0 3f
       0.022027218030789768 0.1326165158785313
000470 15 26 d8 f6 01 90 a1 3f ad ee 9e e3 fd 54 b9 3f
       0.03430181635128463 0.09895312125348239
000480 96 38 bf 21 ad 41 b9 bf e6 53 14 90 95 87 b5 3f
       -0.0986583907499344 0.08410010116160968
000490 f8 06 38 db 08 eb 5b 3f 0a da 56 9d 6e e3 c9 bf
       0.0017039858329330176 -0.20225317652303004
0004a0 2a 0b 4d 77 f2 cf d9 bf 41 76 7e a6 66 23 d0 3f
       -0.403317085747562 0.25216070422343156
0004b0 1f 86 76 00 43 8b c4 3f 97 a9 23 5c 41 16 ca 3f
       0.16049993059736864 0.20380417822827887
0004c0 24 ca 24 ee 97 0d da 3f ed 6a ca 0e a9 a0 c8 bf
       0.4070796800253069 -0.19240296575738772
0004d0 eb fb d6 c9 45 57 cd bf ef fc 97 65 39 d2 db 3f
       -0.22922584872682647 0.434706067288018
0004e0 f2 96 7f 60 90 ba b7 bf 89 71 b6 0a b2 89 e0 bf
       -0.09269049030225654 -0.5168085297805628
0004f0 bb 47 67 85 6f 66 cf 3f 5a 42 85 7b 2f 6c c9 3f
       0.24531358732070693 0.19861405879284427
000500 7a 78 42 59 83 9c b3 bf e0 6f 2c 5b 80 0d db 3f
       -0.07660695008459753 0.4226990595213902
000510 c5 8f f8 6f 35 e4 bc bf 41 ed 78 ce ff de c9 bf
       -0.11285718902269 -0.20211789685877515
000520 e5 90 f7 a9 a3 d2 b1 bf 35 cb 95 25 38 23 db 3f
       -0.06962035083376213 0.42402461691306154
000530 93 a7 3d 3d a4 7a c5 3f 1f 46 0d 4b d7 53 94 3f
       0.1678052233722239 0.01985107799129626
000540 65 b8 7d ca d0 3c d7 3f f8 2a 9b 26 ec 27 d5 bf
       0.36308688902398095 -0.33056167383317314
000550 be 15 f9 63 63 cf c3 3f e7 fb 0a 27 68 c3 e8 bf
       0.15476648694509082 -0.773853374725033
000560 7a cc ba 5a 8a 47 cb 3f c8 db 38 58 6b 45 bd bf
       0.2131207411781338 -0.11434050468311263
000570 9e 98 c2 e5 e4 62 e3 3f 27 84 00 72 80 17 cc 3f
       0.6058220374586829 0.21946721617226325
000580 73 ad 0a d4 84 fe e1 3f e4 46 63 e8 d7 ac e2 bf
       0.5623191968383437 -0.5835990465950229
000590 63 9a 8e b7 59 d0 d6 bf c1 d4 14 30 c4 b3 d9 3f
       -0.35646670270435815 0.4015970677895205
0005a0 7e ac b3 18 56 a5 b8 bf 0f 6a 3b 35 08 0e df bf
       -0.096272831946111 -0.4852314491123772
0005b0 95 f7 1f 5c 42 e8 7d 3f 73 22 79 07 16 63 a9 3f
       0.00730157777615927 0.049584091579679156
0005c0 38 6a c6 06 0c d6 b4 bf 02 c7 ae 04 d7 7e bc bf
       -0.08139109769255348 -0.11131042351078338
0005d0 22 d4 30 e1 9e 4c c3 3f ef 62 46 de 9f 73 ca bf
       0.15077577586785745 -0.20665357926625158
0005e0 43 89 b4 88 7e 2b bb bf 83 37 78 48 eb c7 bd bf
       -0.10613241994409343 -0.11633177298810264
0005f0 9a 52 13 bc de 1b ad bf 1f 81 ee df 12 dc c9 bf
       -0.05685325666278125 -0.20202861723101592
000600 d6 27 79 70 44 43 c5 bf f7 fb 95 7d b0 49 cb bf
       -0.1661153363405094 -0.2131863225185666
000610 01 97 f3 6c d6 b7 c1 3f ae a0 99 c5 86 cf c7 bf
       0.13842277831934527 -0.18602070473139548
000620 17 9d e2 41 91 01 d2 3f 12 3c b4 b0 30 93 d9 bf
       0.28134566721060267 -0.39960877662900984
000630 a2 59 ee ca a3 fe cd 3f a9 9c 17 40 d6 b4 d0 bf
       0.23433349045508317 -0.2610374093914723
000640 c1 cb ed 4c f3 15 b2 bf ea db 77 3c 0c b8 c6 bf
       -0.07064743641039596 -0.17749169304417417
000650 e4 65 f2 98 1d 50 d7 3f b0 7e 52 73 2e 79 d2 3f
       0.3642648690816641 0.28864632856309935
000660 59 b9 42 fb b0 e8 c4 3f 34 1e 69 ea 0b 8f c9 3f
       0.16335117596231433 0.19967793413000978
000670 83 30 bc 64 41 84 d2 3f f9 17 b3 59 f4 5c c1 bf
       0.28932223164952847 -0.1356492460237744
000680 b8 47 10 e1 90 20 9f bf 9e ad 3b 25 e2 a7 a7 3f
       -0.030397666680137297 0.046202723546083777
000690 a9 24 b9 f9 c1 5d de bf 0f d2 19 0f c4 2f d0 bf
       -0.47447251688988473 -0.2529153964490271
0006a0 b7 14 e6 f7 33 e6 d0 3f ae aa ab ab ba 4b c3 bf
       0.2640504761587396 -0.15074857122757152
0006b0 b4 07 cb 47 2e 86 9a bf f6 f9 29 71 ff 04 d2 3f
       -0.02590248406591629 0.2815550427548311
0006c0 6a 98 ea e6 6f 66 cb 3f a0 6c 25 b2 7f 7f e1 3f
       0.2140636327287127 0.5468138198297261
0006d0 ad 94 3e de 51 65 a3 3f 11 fd 13 6f 2f 3e db bf
       0.037882383708429536 -0.42567048881024144
0006e0 1b 66 6f c6 16 89 d7 bf 87 84 0f f5 cc 74 c3 3f
       -0.36774224642212666 0.15200197187281025
0006f0 2f 73 1e 33 72 23 a7 bf d3 a0 d0 79 e9 bc e6 3f
       -0.04519230722437439 0.7105605487058945
000700 73 7c 19 a4 d7 d2 c5 bf e5 0e 74 d2 44 d7 c7 bf
       -0.17049689781831354 -0.1862569835285434
000710 9d 9d 53 cc 3a e2 e0 3f b6 50 4b f7 71 04 d2 bf
       0.5276159277681703 -0.2815213122351098
000720 53 f8 50 0e 52 5b d5 bf 02 89 0c dd e9 f6 bd bf
       -0.3336987628753196 -0.1170488514585806
000730 97 20 ca c8 8a 7b 9a 3f 6b 6f f7 d9 dd 74 cc 3f
       0.025861900811407237 0.22231648581407212
000740 f8 43 19 3f 90 fb e9 bf b4 73 62 a6 48 00 d0 3f
       -0.8119584305187564 0.25001732109540886
000750 3e bf 57 10 5c b4 e3 bf f2 e2 fb 18 14 20 d2 bf
       -0.6157665557093208 -0.2832079166396816
000760 fc 2b 1d be 15 42 c3 bf 13 ae 10 13 1f 82 b3 3f
       -0.15045425208003838 0.07620424476106562
000770 e2 84 31 54 3a ec d0 3f d9 33 84 23 5a 25 d0 bf
       0.2644182035638335 -0.25227979153060925
000780 ad 9c 91 24 59 af c9 bf bf 2a e5 66 97 50 b7 bf
       -0.20066370282731807 -0.09107347738351289
000790 58 10 0d 65 2c 68 d4 bf cc 4a 3d b9 ea 59 bd bf
       -0.3188582407785865 -0.11465327284285393
0007a0 99 98 ac 9c 50 7e d1 3f ff 4f 27 f3 3f 30 e1 3f
       0.27333464908805066 0.537139868649774
0007b0 bb e6 c8 cb 15 2c de 3f 74 67 e9 a7 3f 56 a4 3f
       0.4714407434545184 0.03972052502349657
0007c0 4e 96 f4 ed 83 99 e7 3f 7b 95 a2 dc 1d 6a a4 3f
       0.7374896667067306 0.03987210577296715
0007d0 18 35 f3 76 c6 2f cb bf 8b 68 c7 1c 25 56 e2 bf
       -0.21239548500162964 -0.5730157434548045
0007e0 a3 4d b8 3c bc af c0 bf a3 62 11 e7 cc 60 e1 3f
       -0.13036301579323348 0.5430664551777976
0007f0 29 7c 4f b9 de 40 cb bf 12 67 45 dd d1 e4 d3 bf
       -0.2129171757542008 -0.31084105118280647

conv2.bias f8 [16]
000000 00 00 00 00 00 00 00 00 00 00 00 00 00 00 00 00
       0.0 0.0
000010 00 00 00 00 00 00 00 00 00 00 00 00 00 00 00 00
       0.0 0.0
000020 00 00 00 00 00 00 00 00 00 00 00 00 00 00 00 00
       0.0 0.0
000030 00 00 00 00 00 00 00 00 00 00 00 00 00 00 00 00
       0.0 0.0
000040 00 00 00 00 00 00 00 00 00 00 00 00 00 00 00 00
       0.0 0.0
000050 00 00 00 00 00 00 00 00 00 00 00 00 00 00 00 00
       0.0 0.0
000060 00 00 00 00 00 00 00 00 00 00 00 00 00 00 00 00
       0.0 0.0
000070 00 00 00 00 00 00 00 00 00 00 00 00 00 00 00 00
       0.0 0.0

fc1.weight f8 [400, 256]
000000 9b d4 41 c9 cb 4c a5 3f 59 95 81 e8 44 10 97 3f
       0.04160153228523563 0.022522999468852365
000010 ca 93 99 fd 51 70 e4 3f 14 9b fa ef 58 d1 aa bf
       0.6387109711764591 -0.052378443998625596
000020 2b 7c f8 2a 0c 08 c9 bf ff e5 75 dd 78 48 9c bf
       -0.19555809114624031 -0.02762020923316832
000030 60 29 de 1b 4e b6 a2 bf 9f 29 33 f0 38 6e a3 bf
       -0.03654712763007484 -0.0379503052914345
000040 5b 2f e5 8d bc 72 a6 bf 8b 26 d8 7b 4c cb bf bf
       -0.04384412033195303 -0.12419584296744739
000050 14 25 1d d1 bd b4 be bf cd 2f 5e 2c 8b fe a8 bf
       -0.11994539599722415 -0.04881701389885471
000060 07 26 04 e5 4d 03 b8 bf 22 0c 78 09 45 bf bc 3f
       -0.09380041924682568 0.11229354363608526
000070 7a 26 f6 54 df 95 93 3f dc 00 04 a1 df 4e b3 bf
       0.019126405296935968 -0.07542226487203457
000080 dc 37 2a 6e 7a 18 b0 3f 9b 74 65 d0 76 3e b1 3f
       0.06287350835393063 0.0673593767910056
000090 c1 26 f7 9c 9d 3b d4 bf aa d2 4e 91 13 cb b0 3f
       -0.3161386521211221 0.06559870050007058
0000a0 33 a1 f2 64 e1 d4 73 bf fb 64 62 f8 e0 8a c7 bf
       -0.0048416904893787025 -0.1839257443250871
0000b0 75 d0 50 33 c8 3d a0 3f b6 44 02 b7 23 d3 81 bf
       0.031721359504815284 -0.008703497908103191
0000c0 e8 ff 21 1f 96 3e ac 3f 8a 5e b8 5a a7 28 c5 bf
       0.055164996433631874 -0.16530315332123663
0000d0 a2 a7 e9 78 58 d4 c1 3f 7e 34 0e e5 ee 3f f0 bf
       0.13929277328435058 -1.0156086871604937
0000e0 68 5b ca bf 9f 80 bb bf c3 6f 61 4e b9 8a f7 3f
       -0.1074313967932149 1.4713681279890671
0000f0 dd 7a fe a3 25 c0 c2 bf d3 4f f0 a7 48 63 cc bf
       -0.14648886210939951 -0.22177990150578228
000100 87 71 a2 74 36 71 7e bf e6 42 49 26 af 46 c3 3f
       -0.007432186810686032 0.15059460992281187
000110 5d 40 45 12 bb 56 f3 3f 7a 07 cc 41 02 86 c0 3f
       1.2086744989101341 0.12908962452643974
000120 be f9 1c e5 4b c4 b6 bf 5d 0d 8b 85 27 eb be 3f
       -0.08893274634917867 0.12077567110377659
000130 99 e5 ea 70 66 46 92 3f 0c 4d 55 b8 83 33 a0 3f
       0.01784668029970291 0.03164302468453614
000140 28 ec 8b 41 fb 4e b4 bf e9 3d d6 53 fe 22 68 3f
       -0.07933016157396422 0.002946373685240412
000150 50 48 df f2 f5 af b0 3f ae 66 a5 68 24 1d 81 bf
       0.06518494777199746 -0.008356365626855346
000160 79 dd ea 45 2a a4 ac 3f 54 40 20 38 d4 a8 c2 bf
       0.055939980540126784 -0.1457772516300816
000170 34 67 13 87 da be c9 3f 14 b8 38 c5 41 08 bb 3f
       0.20113689036843996 0.10559474053363288
000180 db 32 85 b1 ce af ef bf bb a8 09 29 bc 19 95 bf
       -0.990210863799429 -0.02060598373865539
000190 15 41 24 86 50 9c 98 3f ff eb 37 5e 29 8f be bf
       0.024033792674402827 -0.11937197256331443
0001a0 14 95 21 2e 4d b3 b6 bf 48 a0 1f de 02 00 b5 bf
       -0.08867342354058777 -0.08203142092645621
0001b0 11 73 24 ac c4 1a 87 bf b6 7d 15 14 37 8e 6b 3f
       -0.011281525138252787 0.0033637119055780164
0001c0 23 24 ab 0e 19 e3 95 bf 76 d2 81 06 2e fa b8 3f
       -0.02137412216214697 0.09756744059434105
0001d0 bb b0 1b eb 6e 00 b2 3f 8c 39 51 28 37 35 cb 3f
       0.07031911125131078 0.21256150692574882
0001e0 e3 78 e4 f9 54 1d 90 3f 66 20 c6 61 d0 5f c5 bf
       0.015736892463899543 -0.16698651098363654
0001f0 5e 80 b2 f4 84 4c d8 3f 06 fd 94 67 a8 2a b6 3f
       0.37967037101953405 0.0865884068380077
000200 36 3f c0 ed 25 a3 9f 3f ac f3 e3 d6 ae d2 bd bf
       0.030895798336188572 -0.11649601694439465
000210 14 7e d8 13 c9 c4 c1 bf 58 11 4c 69 94 cc d7 bf
       -0.13881791562106172 -0.3718615558903102
000220 9e 67 5c f0 8f 7b 78 bf 13 7b 60 2d 1a a3 c4 bf
       -0.005977213155142906 -0.16122748580615873
000230 6b 26 25 3b 7e 8b c2 bf 41 1a 0a 92 a9 bb 94 bf
       -0.14488199127144993 -0.020247125185529184
000240 0e 04 9e 8f 60 39 b5 3f 97 a8 53 73 75 60 a3 3f
       0.08290675646095755 0.037845297172524876
000250 ed 28 d6 80 5d 96 c1 bf 56 98 ee 9b 96 ae c0 3f
       -0.13740128317687753 0.13032801259868404
000260 fd af 93 15 4b a9 e8 3f a3 8f b2 5d a6 07 bd bf
       0.770665685789481 -0.11339797771012043
000270 f1 2d 90 02 db 6c ac bf 19 a9 cb 87 ac 87 b1 3f
       -0.055518001616373776 0.06847647013970394
000280 5c 54 00 f4 82 0b bd bf 36 40 bb eb 11 d7 b0 bf
       -0.11345690209448506 -0.06578170781290357
000290 57 65 06 a2 62 2e 71 bf 00 22 28 34 83 50 76 bf
       -0.004194627079777766 -0.005447876467322477
0002a0 b3 34 a2 81 ae c7 b0 3f fb 0c 1d 42 fe e0 c0 bf
       0.06554690041430682 -0.13186624744603379
0002b0 fe a2 8e f6 ee 14 9b 3f 5a 1e c2 b6 6b ce c1 3f
       0.02644704227319305 0.13911196159118583
0002c0 84 d4 a0 e7 b7 02 96 bf f2 5a 0a ea c0 1f b2 bf
       -0.021494744789567935 -0.07079702104452304
0002d0 50 31 a1 70 3f 68 e6 3f 31 a3 6c e9 a1 5f b0 bf
       0.7002255630300542 -0.06395923565709151
0002e0 12 9b 19 ec 90 df b7 bf d4 ce 9b 33 95 14 bb bf
       -0.09325509800110535 -0.10578281888939084
0002f0 c6 6f ee aa f6 cc bb bf 0d 6f f9 76 ff bb d0 3f
       -0.108596245509431 0.26147448175991955
000300 fb 8f 6e e9 86 b0 ac 3f 3b d3 63 5b fd 59 b9 3f
       0.056034294123747906 0.09902938348006966
000310 5b 78 b2 cd d2 35 ca 3f 12 bb de d5 ce 05 c1 bf
       0.20476756137662985 -0.13298974459527152
000320 36 44 ce 86 c6 53 9c 3f c6 6a 1a 6b e1 d4 c2 bf
       0.02766332814968938 -0.14712159852645906
000330 01 3b 1c 20 3c d1 92 3f ee 26 74 aa 9a b3 8f bf
       0.018376292667251274 -0.015479286505541503
000340 2c b5 b4 07 fe 9f b4 bf d8 86 eb fc 51 06 c1 bf
       -0.08056628883487765 -0.13300537919626865
000350 37 ba 82 6c af 10 ac bf 42 ee 65 b2 4a 21 c1 bf
       -0.054814798351220544 -0.13382848463867175
000360 c4 50 70 fb 73 5b 7e 3f dc 7f e8 27 43 9b ba 3f
       0.007411435180092411 0.10393161510773957
000370 30 ff 0f 55 1a 16 89 bf aa 24 52 71 d9 32 fd 3f
       -0.012249189110661612 1.824914400729805
000380 e4 3b 79 01 23 13 f8 bf 9d d3 b7 1d 02 86 9d bf
       -1.5046720559655506 -0.028831513465735637
000390 4f 08 48 ed 06 25 ba bf 6d eb d4 3b a9 5b a2 3f
       -0.10212748806955683 0.0358555684601559
0003a0 9f 4e 6a 9f 7e fd c2 3f 84 db c5 ce 89 5e 86 bf
       0.1483610418696246 -0.01092250501890902
0003b0 7c a9 58 57 26 6c c2 3f ab 4e 78 4f a7 8c b9 bf
       0.14392546906431025 -0.09980245294746719
0003c0 13 19 d8 e9 77 69 83 bf 6a 2f f2 e1 93 6c b5 3f
       -0.009478508781296335 0.08368801370869297
0003d0 72 15 3a 05 73 90 61 3f 5a d8 e6 2b 15 73 b4 bf
       0.0021440741055040397 -0.07988102266139788
0003e0 d4 d7 60 ad a0 13 c7 bf fb 40 b8 ab 19 89 d3 bf
       -0.18028648820626236 -0.3052429367971993
0003f0 4d ed 4f 70 2f 26 ba bf 3c b4 e8 db e7 83 ca 3f
       -0.10214516155240468 0.20715044248336933
000400 bf 2f aa 51 7e 3d c5 3f 59 de 21 19 d1 93 b1 bf
       0.16593913066424013 -0.06866175521451491
000410 03 fd f6 09 98 cb b4 bf de a7 ba 23 d1 e5 91 3f
       -0.08123159640580373 0.01747824459622637
000420 68 ad 10 d3 86 67 b1 bf c1 e9 66 b9 1d 03 b4 bf
       -0.06798594143827119 -0.07817254806915398
000430 eb bc 69 39 6d ab b7 3f bc ab 8d 2f ef 04 ca 3f
       0.09245951320348282 0.2032755834764809
000440 d1 bc 9a 56 f2 0b b7 bf e0 f9 c3 ab e1 c0 b2 3f
       -0.0900260411678915 0.07325563853735373
000450 ae c1 8b b1 c1 ff a1 bf 72 06 89 1f fa 42 b8 bf
       -0.035154393122755465 -0.09477198858169247
000460 31 04 99 91 21 4a b4 3f 19 7a 79 a6 c1 c3 cd bf
       0.0792561512435135 -0.23253651264799727
000470 e2 ca e2 f8 e0 9e b0 3f e9 69 7e 62 26 5a 69 bf
       0.0649242980605709 -0.003094744653890692
000480 f2 8f ec ea a1 db ec bf ea 8f da e1 66 7c 04 c0
       -0.9018106068001528 -2.5607431073021774
000490 14 b9 fd ad 43 64 e0 bf 86 5d f8 8a 31 46 94 3f
       -0.5122393034232879 0.01979901705462119
0004a0 61 9e ca 84 fc 78 59 bf e2 85 67 a3 97 d5 b4 bf
       -0.0015547243121235776 -0.0813841604172221
0004b0 ce b9 45 8e d2 8d 92 3f 2a 07 b4 b1 cd 6a bb 3f
       0.018119134839645494 0.10709844196756238
0004c0 4f 80 6b 97 aa 17 ea 3f 75 66 fb 8c 25 35 ff bf
       0.8153889615459863 -1.9504752642737035
0004d0 98 bf a2 56 0e ce c4 bf 75 9c 7a 85 06 d6 ef 3f
       -0.16253833036671206 0.9948761565218677
0004e0 12 0e a5 d9 ad 8d bf 3f fe 70 b5 a7 23 ff 90 3f
       0.12325560153572493 0.016598279105310525
0004f0 c8 ae 95 dd 4a bb aa 3f 88 cb 56 f3 af 65 8b bf
       0.05221017794505439 -0.01337754689561678
000500 c3 b9 8d 55 bd 75 6f 3f 50 ed d9 04 e9 13 94 bf
       0.003840322297427452 -0.01960720150098655
000510 2c 5e ca 63 32 bc cd bf e7 05 5e 29 10 a5 ce bf
       -0.23230581162054997 -0.23941232700239753
000520 3d ff 83 f3 e3 c3 c9 3f 33 88 ac de a1 2d da 3f
       0.20129060163889703 0.4090351748037648
000530 06 89 70 23 2f 6b bd bf 34 19 e9 32 f5 a5 bb bf
       -0.11491675009941468 -0.10800106518681646
000540 2a 26 0d 3f c4 38 a5 bf bf 02 66 4f 99 c2 e9 3f
       -0.04144871968908277 0.8050047446013976
000550 32 74 85 71 69 ac db 3f ec b8 a4 1d e4 03 b2 bf
       0.432398186550759 -0.07037187312809906
000560 88 93 55 97 b2 3a 72 3f da e9 44 d3 8e 2b b5 3f
       0.004450509664228337 0.08269589097918786
000570 af c6 05 70 d6 52 d0 3f 56 79 6f 64 01 70 87 bf
       0.25505600871756945 -0.011444102170511766
000580 6c 35 20 f4 70 ff 7e bf 18 97 08 b3 8d 0c 8a 3f
       -0.007567826485695189 0.012719256426020162
000590 ff 40 70 fd 11 1d 96 bf d2 63 fc d1 cf f5 aa 3f
       -0.02159526929250521 0.052656645186466414
0005a0 ab 45 53 05 4a 76 be 3f 57 4f ea 6b f0 c3 ae 3f
       0.11899244909297717 0.06008864705395805
0005b0 97 e5 17 24 8c 94 b7 3f 75 da d8 de e0 e4 af bf
       0.09211040383515577 -0.062293078616154775
0005c0 36 7a e0 11 42 7b b1 3f 72 f2 14 06 5c 8e d3 bf
       0.06828701912352461 -0.3055639323609177
0005d0 14 9f 59 6e 97 57 c1 3f 78 cd f3 b5 a2 92 6e bf
       0.13548558128535915 -0.003732030672489447
0005e0 ff db 58 82 6e e8 a3 bf ab 20 46 5d e2 50 ba bf
       -0.03888268796111304 -0.10279669549174979
0005f0 6c 70 0a 87 9d c5 c1 bf a9 4b 4b 59 b7 66 c5 bf
       -0.13884324163234696 -0.16719714984955417
000600 73 27 c8 39 1a 09 b1 bf c4 47 af cd 8b d2 f7 bf
       -0.06654514227571244 -1.4889028582151562
000610 53 11 5f 7e 16 ea bc 3f b9 fc 3a 5b 91 67 b4 3f
       0.1129468973659347 0.07970531918816705
000620 1e 17 7f f9 d2 07 af bf 23 23 a2 ce e4 79 ba bf
       -0.06060656829462928 -0.10342245144614685
000630 8c f2 f3 a3 46 cc c3 3f 14 1b ed 1e 28 e8 c8 bf
       0.1546715069342962 -0.19458486089771354
000640 ee ad d1 ea a9 c4 bf bf e9 11 a6 20 4a 77 b3 bf
       -0.12409460051428997 -0.07603896424377123
000650 ee e8 eb fe a7 12 c2 bf 66 cb 2c 28 f8 7d b1 3f
       -0.14119434306468953 0.06832838993868293
000660 a2 e8 f2 83 24 0f 93 3f ca 33 61 7c 5d 36 87 3f
       0.018612452081221982 0.011334162100092988
000670 d4 a5 8e b2 ba 50 b6 3f 64 08 5f 34 c9 24 c2 bf
       0.08716933116252018 -0.14174761826695026
000680 99 dd c1 b3 ca ff 8d bf 25 f5 6d 7f 83 04 b6 bf
       -0.014648040400273387 -0.08600637303421317
000690 0a e2 08 3b bb 80 89 bf 3a bd 95 b0 83 85 b4 3f
       -0.012452566851707498 0.08016226826815834
0006a0 b3 4c ba 65 b5 ef d4 bf be 9d 5f ef 47 a4 c1 bf
       -0.32713065084790144 -0.1378259581390306
0006b0 58 13 95 34 e6 12 40 bf 1d a4 2c 8a 86 55 b0 3f
       -0.0004905342149546894 0.06380501626394204
0006c0 95 f6 99 87 38 bb a0 3f ed 64 75 d7 2a 38 9b bf
       0.03267838149348027 -0.026581448936984598
0006d0 f8 d3 92 08 7d 98 fd 3f 71 10 ec 73 a5 fa 84 3f
       1.8497286162285018 0.010243694877779515
0006e0 65 de cb 4c d6 8d c1 bf e7 41 be 4d f5 66 c7 bf
       -0.13714102506468176 -0.18282953544668532
0006f0 75 dd 60 84 f7 52 9a 3f 15 f2 f6 68 bb 8e ca 3f
       0.025707118468031937 0.20748083710886137
000700 28 3e ee 51 c8 84 a5 bf ba 99 23 21 73 82 c9 bf
       -0.04202867508058389 -0.19929350965612774
000710 e2 88 fb 79 f8 6c 9c bf 53 3d fc cf c9 df b3 3f
       -0.027759439892982914 0.07763348891989112
000720 3c 80 43 64 20 a2 91 bf 12 2d 4b e6 c1 86 9a 3f
       -0.017220026130303476 0.02590468376255923
000730 8b 2a 72 6f 1f 5e c1 bf c7 c4 12 70 d8 78 a5 3f
       -0.13568489972779604 0.041937602692436786
000740 4b a2 f7 98 1c a9 ad bf 9d b2 7e 83 a4 04 ab bf
       -0.05793084494854791 -0.05276979546701919
000750 be cf 57 7e d9 ae c4 3f 35 3c cd ba ad 5c bf bf
       0.1615859858426329 -0.12250791369045617
000760 1a e4 a2 51 61 2c 81 bf 24 7d 77 56 15 79 c6 3f
       -0.008385429672090484 0.1755701706124252
000770 66 a2 fe 06 f7 17 fe bf a2 30 93 90 fa b9 b8 3f
       -1.8808508179883119 0.09658781079923753
000780 f7 41 86 88 9b 77 95 bf c4 46 a6 0f 0e c9 c1 3f
       -0.020964079101362967 0.13894820942055308
000790 52 40 5e e3 90 70 93 bf 5e 51 b1 b8 d3 61 9f 3f
       -0.018984092595531195 0.030646618030304544
0007a0 9c 41 bc 67 09 80 9a 3f cf 02 3e 8f 59 a5 c2 bf
       0.025879046398644343 -0.1456710767197564
0007b0 38 1e 98 cc 86 97 94 bf a6 54 cd 7b 78 32 b3 bf
       -0.020109277951659815 -0.07498887083541436
0007c0 05 00 a2 a3 13 18 a4 bf b0 13 5d 59 1d f7 d5 bf
       -0.03924619076224193 -0.3432076809588649
0007d0 bb 54 b5 9d b9 0f c5 3f 89 29 6e b3 9c 76 a1 bf
       0.16454239082910313 -0.03410806360541858
0007e0 ee 4b ad a7 fa b9 a2 3f 54 84 b8 0f e1 97 c6 bf
       0.03657515808904309 -0.17650998370757753
0007f0 c2 82 48 4b 2b 48 cb bf 05 f4 1d ad f0 38 bf bf
       -0.21313992668094356 -0.12196258760918972

fc1.bias f8 [1, 256]
000000 11 d0 5a ab 85 bf ae bf 1a 5a 94 be bf 13 a9 bf
       -0.06005494801266321 -0.04897879792604361
000010 dc 84 a8 e6 3e 08 95 bf 26 04 85 0f 04 b0 a8 bf
       -0.02053926737619781 -0.048217894453508145
000020 43 2a 18 58 7b 2d a8 bf 4c c4 34 dc 8e 44 ab bf
       -0.047221998695097266 -0.05325743139327041
000030 1b 0d 14 1d ac 3a a4 bf 58 3a 2c 64 88 f7 b0 bf
       -0.039510134267425744 -0.06627705045341636
000040 c7 ae 49 20 28 bf ae bf ba 5a 07 a6 7b bf ae bf
       -0.06005216020716158 -0.060054649369410254
000050 93 18 5f 16 84 bf ae bf a1 2a 36 46 32 c0 a2 bf
       -0.06005490086640566 -0.036622592039823994
000060 5c 78 06 52 ba 17 a3 bf 29 7a 66 05 6d b8 b6 bf
       -0.037290403855181536 -0.0887516153511362
000070 5f 56 b5 f7 86 bf ae bf b2 85 63 73 db 8d a2 bf
       -0.06005498670371589 -0.036238534770528644
000080 a2 5d 94 98 88 bf ae bf 29 7c 4c ad 06 7d ac bf
       -0.06005503523391133 -0.055641373304972604
000090 f5 a6 d4 2e d4 5b 8c bf 09 61 4e 10 85 bf ae bf
       -0.01384702461162444 -0.060054929962634125
0000a0 e7 27 a3 dc 87 bf ae bf 9c 33 53 c3 3f 64 b0 bf
       -0.06005501335455659 -0.06402967947651778
0000b0 b0 69 0c eb d3 f0 a4 bf d2 2b 61 c7 ab 55 9f bf
       -0.04089987034076914 -0.03060024647156096
0000c0 ae b5 ab ee 6a 9d ae bf 1d 5d 1d 3c 09 c3 a6 bf
       -0.059794751772510465 -0.044456757152767624
0000d0 5c da 88 7a 3f b6 a1 bf 1d 5f 5e 29 97 63 c1 bf
       -0.03459356661590071 -0.13585176010087077
0000e0 33 5d 69 d6 d8 e9 ad bf 1d f1 e6 67 00 0a c0 bf
       -0.05842473618820989 -0.12530522416444337
0000f0 0f 04 b4 d3 75 af b5 bf f4 67 27 20 65 27 d4 bf
       -0.0847085611203655 -0.3149044813159201
000100 10 57 ea 25 88 bf ae bf e8 78 20 7c fd ae b4 bf
       -0.06005502188524592 -0.08079513817253636
000110 1c ec 54 30 87 f5 b5 bf bd a4 57 c9 57 97 a4 bf
       -0.08577771120046446 -0.04021715481560182
000120 d3 74 2e c5 55 2a 93 bf 6e 1f 6a cf 7a bf ae bf
       -0.018716182861329877 -0.06005462438503072
000130 10 09 48 c0 79 bf ae bf ed 27 5a 2f b4 1e ac bf
       -0.06005459282097736 -0.054921751766485595
000140 6d f9 29 6d 76 bf ae bf e2 4e c9 d2 38 03 a1 bf
       -0.06005449373786829 -0.033227706652409386
000150 9a 1b b3 6e f0 bc ad bf a0 24 93 0c 89 bf ae bf
       -0.058082116616382254 -0.060055048737532646
000160 22 fc cd 95 64 cf b0 bf d2 f5 c2 33 4b 58 b5 bf
       -0.06566456467952311 -0.08337850583753628
000170 34 bb 6c e5 0a 53 b3 bf 51 c8 5d 96 54 58 a5 bf
       -0.07548587895574316 -0.04168953261877618
000180 0e 1e 9e 00 fc 45 c3 3f ea 50 db eb 05 8a ae bf
       0.15057325391920567 -0.05964678291425847
000190 c7 63 7d 54 88 bf ae bf d2 9b a7 83 9d b4 a5 bf
       -0.06005502730722117 -0.04239361030686663
0001a0 0f 6f aa 57 9c 9e af bf ad a7 dd 77 0e fe 8b bf
       -0.06175697870386731 -0.01366816809941781
0001b0 e7 ac 84 f7 89 af 9d bf 49 24 3d 31 89 bf ae bf
       -0.02898994038802707 -0.06005505300579068
0001c0 00 00 00 00 00 00 00 00 bc 11 e7 14 ff df b9 3f
       0.0 0.10107416401212438
0001d0 ba b0 15 e5 11 5b b3 bf 97 38 83 33 93 de b0 bf
       -0.07560836642159333 -0.06589622504836466
0001e0 73 29 23 4f 68 bf ae bf d6 b5 f9 18 7c bf ae bf
       -0.06005407300979728 -0.060054662750967644
0001f0 bc ba 26 76 42 4d e2 3f e8 35 67 83 f5 07 b0 bf
       0.5719311053888627 -0.06262144525609126
000200 1a cb 25 0a 70 bf ae bf b8 31 e4 8e 2e de a7 bf
       -0.06005430339691582 -0.04661698812751375
000210 33 7b e2 07 83 bf ae bf 2c 78 42 39 b3 2f ca bf
       -0.06005486937760054 -0.20458069129830514
000220 ce ef 80 47 b0 2d 9b bf 15 ce bf 35 21 b7 b1 bf
       -0.026541475643383987 -0.06920058786618484
000230 02 b2 17 1a 0f 25 b0 bf 15 51 9d f7 bf 48 b0 bf
       -0.06306547534013165 -0.06361007495189981
000240 8b 1f 4a ac 88 bf ae bf 6d 27 b0 72 73 45 aa bf
       -0.060055037528456166 -0.05131111884118309
000250 fe 3a ab 6a 9b 6b c3 bf ba fc e4 bc b6 b9 ae bf
       -0.15172140797081818 -0.06001063400116764
000260 83 cd 3e 77 62 2e ce bf 95 b3 12 3e 84 bf ae bf
       -0.23579054663205676 -0.06005490548827833
000270 04 bf 66 1c 6c 69 b4 bf 87 ae 3a 9d 35 b6 a6 bf
       -0.07973361676590335 -0.044358897631664944
000280 f2 bf 4d e7 85 bf ae bf 23 50 11 0a a0 46 ad bf
       -0.060054954991642165 -0.057179452160795806
000290 cf b9 89 a2 6b e8 a4 bf d4 f2 09 a8 85 9d b2 bf
       -0.04083572730165807 -0.07271609642516391
0002a0 00 00 00 00 00 00 00 00 3f cc 77 11 fe 56 ac bf
       0.0 -0.055351199753112194
0002b0 9c ef d6 e0 ce 96 a6 bf a5 2e 6c 94 fc 7d ad bf
       -0.04411932463287302 -0.05760182678031115
0002c0 26 8b 6b 5a c1 97 bc bf 70 1b 32 5c 06 ad b4 bf
       -0.11169060189744737 -0.08076514960167258
0002d0 4e 99 0b cc ca 93 91 bf 3f 8d f1 e3 86 bf ae bf
       -0.01716534490960813 -0.06005498440279177
0002e0 68 b5 dd db 57 50 c4 bf 2c cb 57 b2 88 bf ae bf
       -0.15870187984129847 -0.06005503823316469
0002f0 2e 01 7b ff 5b 07 b0 bf 0d 2a ca c7 07 94 b8 3f
       -0.06261229502979823 0.09600876453092884
000300 b0 ce ba a6 bb 31 aa bf 9d 6f e1 d1 91 49 a7 bf
       -0.05116068277621133 -0.04548316657084615
000310 96 6d e4 f6 af 71 ad bf 0f 44 61 a0 7f ca e2 bf
       -0.057507990730495326 -0.5872190601750179
000320 08 cf b3 10 f8 60 a6 bf 9d 3d 3f d8 4f 3c a9 bf
       -0.043708564795364835 -0.04928826822981167
000330 e6 21 4d 05 02 19 a4 bf 9f 10 c5 03 89 bf ae bf
       -0.039253295085078396 -0.06005504771249658
000340 5e 5d f4 fe fe fa a6 bf ad bd 26 ad 68 3b 9d bf
       -0.044883698103314926 -0.02854693943817004
000350 00 14 90 0d 7d bf ae bf 56 6d 5f 01 89 bf ae bf
       -0.06005469122468554 -0.060055047433446404
000360 63 79 32 ac ab 9e b1 bf b9 62 6a 96 f0 be ae bf
       -0.06882737115890829 -0.06005050502898741
000370 63 3e c9 5c 4d c1 b2 bf 2a 6e e9 a9 6c 45 c3 bf
       -0.0732620574501595 -0.15055616661526133
000380 09 8c f8 49 1e b9 c2 3f 62 19 67 27 ac 9e a7 bf
       0.14627436267718988 -0.0461324499224698
000390 b4 e5 79 e4 1d 50 97 bf 46 8a f9 5e b1 db ae bf
       -0.022766558713987542 -0.06026987346992434
0003a0 e5 28 1d 77 c0 ea 96 bf 66 92 1d 7f 3d 38 b1 bf
       -0.022379882116447276 -0.0672644076672185
0003b0 9e 65 c4 5f 0c cc ac bf 14 7f 6e 62 6b 39 a8 bf
       -0.056244265261010215 -0.04731307579572622
0003c0 84 17 56 d9 7f 2d 91 bf 59 e8 76 8e 6a d6 a8 bf
       -0.016775128975062184 -0.048510866060909215
0003d0 07 0f 0f 93 88 bf ae bf b1 96 35 1b 89 6c aa bf
       -0.06005503459121369 -0.051609310695125095
0003e0 cc 8a 6a e3 87 bf ae bf 05 12 1a 0a 42 08 e2 3f
       -0.060055014143718916 0.5635080525685799
0003f0 07 3b 88 17 dd dd af bf b7 77 a3 9e 77 bf ae bf
       -0.062239560244156826 -0.06005452929979021
000400 fd fa 93 b0 ed 7b a6 bf 2b b1 67 77 5a b1 ae bf
       -0.04391424923413998 -0.05994684894162313
000410 21 d7 99 81 5a e4 a7 bf 31 11 d3 62 43 0b c2 bf
       -0.0466640742496749 -0.14096872640050997
000420 e3 16 73 9a e4 41 a8 bf b0 6d 1c 3e 30 d8 ae bf
       -0.047377723554331806 -0.06024313696090233
000430 17 3a 04 9e 14 11 b4 bf 1b 63 06 52 e3 43 a1 bf
       -0.07838562829804406 -0.03372106910973668
000440 bf 30 26 ab 88 bf ae bf 12 37 06 81 76 bf ae bf
       -0.0600550373957005 -0.06005449604991332
000450 08 1b f3 2e cf 84 ac bf 76 6d 0d 23 89 bf ae bf
       -0.05570075462451568 -0.060055051354278285
000460 cb fd cb a8 6e 01 a8 bf 1c dc 55 b0 db e1 a7 bf
       -0.0468859273005325 -0.046645036006275314
000470 e9 b9 c9 5d 00 a4 b4 bf 01 61 47 6a 10 9c b4 3f
       -0.08062746324296878 0.08050634951303338
000480 8c 05 a1 3c fc 89 d7 3f 40 36 90 b5 dd c4 d3 bf
       0.3677969543533315 -0.30889075022500734
000490 14 6a 52 24 5d 84 ca bf 18 99 05 86 f1 b0 9e bf
       -0.20716442369014543 -0.029971860699697123
0004a0 90 e8 d3 10 9f 7d 86 bf 6c 2c be 94 28 20 a6 bf
       -0.010981791211168962 -0.043214100033844044
0004b0 8e d0 67 e7 7c bf ae bf 81 22 3c 5b 47 47 96 bf
       -0.06005468678259361 -0.021756281798874347
0004c0 70 63 18 ee d6 83 f7 bf 97 b8 38 28 94 5e e4 3f
       -1.4696873951527003 0.63654525619292
0004d0 dd ac e2 e7 9d a9 a4 bf 41 b8 ca 0b 9d 8e db bf
       -0.04035657363541543 -0.4305794348864574
0004e0 52 c1 24 03 a5 40 a3 bf ee 58 4a da 06 d1 97 bf
       -0.037602573999154246 -0.023258311341657505
0004f0 de 34 1f e9 c7 87 a2 bf 41 d4 99 9a 7a bf ae bf
       -0.036192176062834966 -0.060054618236712994
000500 8d 88 23 e4 7f 37 69 bf 2e 50 68 a4 7c bf ae bf
       -0.0030782220720633803 -0.060054678982993756
000510 52 56 b0 30 94 3e ac bf 13 57 b9 a3 c3 ad a6 bf
       -0.055164938872775196 -0.04429446576675224
000520 cb 90 d8 18 c5 c8 c1 bf 84 a6 10 b5 7c f9 ac bf
       -0.13893951142484293 -0.056590935805002324
000530 60 02 49 64 fb 90 c1 bf 3a 46 c9 b0 67 22 b3 bf
       -0.13723699948060908 -0.07474372926778808
000540 d9 a4 79 e7 80 bf ae bf b4 69 f4 65 a0 26 9f bf
       -0.060054805999990975 -0.030420786116431578
000550 3d 74 6b fe 7f 86 aa bf 38 b6 44 75 f9 a2 a9 bf
       -0.05180740338048693 -0.050071521344176195
000560 d0 0a c9 0b 53 94 b5 bf 3b d2 c3 d5 b5 0c a6 bf
       -0.08429450071075029 -0.0430657218402399
000570 41 b4 d6 54 63 3c 91 bf ce 46 ab 91 05 98 b0 bf
       -0.016831924489157272 -0.06481966787694235
000580 52 aa 45 85 80 73 a3 bf 2e 59 2c 4d 7c 0a a2 bf
       -0.037990585583277295 -0.03523624841743565
000590 e2 7b bc 57 47 75 a8 bf b9 b3 40 30 0d fa ab bf
       -0.04776976533889134 -0.05464211668036207
0005a0 b9 ce d1 5a c5 cf a4 bf d5 92 e9 b3 b7 67 a0 bf
       -0.0406476662982675 -0.032041302406275264
0005b0 65 24 02 2f f2 8e b1 bf a6 0f 9c b5 b3 7f ac bf
       -0.06858743331589919 -0.05566178886331778
0005c0 cd da af 97 82 4c 97 bf 21 09 7a 91 c4 48 af 3f
       -0.022752800472484225 0.061102049597155046
0005d0 48 f9 81 84 92 5e a5 bf 9c 0b 2d dd 13 3f aa bf
       -0.041737154650933805 -0.05126249384786449
0005e0 52 4b e0 dc e7 6e b0 bf 41 7c c0 ba d1 ce b0 bf
       -0.06419228689655412 -0.0656558113991972
0005f0 0d ef d4 04 a5 5d a6 bf 63 79 f6 1f 3a e1 ad bf
       -0.043683201637092585 -0.05835897102518819
000600 16 da f0 cc 86 bf ae bf 7d c0 d4 73 02 9a bf bf
       -0.060054981724921117 -0.1234437496939353
000610 eb be 64 7b 40 43 a6 bf ca 9a 91 49 87 bf ae bf
       -0.04348184114712502 -0.06005499623352291
000620 ac f9 24 13 5d 24 a2 bf 1a 9e cf 56 fb 28 d0 bf
       -0.03543368204781258 -0.2525013301624043
000630 91 5c f0 67 85 b9 91 bf 25 bb 79 55 3e 19 96 bf
       -0.01730926939862038 -0.021580671278964254
000640 bb df 2e ae bc 0b af bf b1 c4 54 0d 32 51 a6 bf
       -0.06063642145403444 -0.04358822262509799
000650 5d f6 cb 8b e2 11 ac bf d4 b0 2b 24 1b 30 ac bf
       -0.054823951306371944 -0.0550545198110243
000660 ff 02 61 ed 5a 95 a7 bf 5d 9d ce b7 71 bf ae bf
       -0.04606136462871823 -0.06005435341585994
000670 fa ec 90 cd 2b 6d aa bf f2 d1 55 a9 8c e9 a9 bf
       -0.05161415943481447 -0.05060996596413138
000680 f4 45 e4 f4 82 e7 ab bf 3c 23 2f 3a a6 7b a4 bf
       -0.054500667947774334 -0.04000586948638449
000690 4d df e7 9c 16 3d ce 3f 8d 4f c4 e5 b1 ed a9 bf
       0.23623926793492914 -0.05064159326334936
0006a0 97 09 bc e6 ba 2b b1 3f e8 d0 4c 70 3d fc 6b bf
       0.06707351811568284 -0.0034161758398117865
0006b0 8a 86 a9 b4 44 d5 8c bf bb 81 ff 16 83 bf ae bf
       -0.014078652156231958 -0.06005487113702964
0006c0 74 25 53 15 87 bf ae bf 13 01 46 94 83 bf ae bf
       -0.06005499015152341 -0.06005488572100339
0006d0 ca 88 41 fa 29 83 d4 3f d7 73 73 e7 7a bf ae bf
       0.32050561369954933 -0.06005462718324111
0006e0 e0 f0 d1 e8 20 7a b5 bf 65 da b3 4e 7d 2b a1 bf
       -0.08389478382190729 -0.03353492341732504
0006f0 f5 c8 d5 79 57 b2 a7 bf 8a 75 fc c6 e0 d4 99 bf
       -0.04628251421208233 -0.025226127762939345
000700 53 97 64 03 4a be ae bf 47 b4 01 08 2e 9a a0 bf
       -0.060045540727783696 -0.03242629859673989
000710 80 3f d8 20 aa 41 ae bf 2f 2e cd d1 88 28 b9 bf
       -0.05909473086296568 -0.09827475664240447
000720 0e 32 48 f7 78 bf ae bf 45 4c 67 0e 6c ce af bf
       -0.06005456942157049 -0.062121750601044336
000730 ca c3 bf 70 87 bf ae bf de 44 27 86 21 81 a4 bf
       -0.06005500079471167 -0.04004769098868065
000740 9f 5b af aa 80 3e a5 3f 06 a5 81 5b 95 be a0 bf
       0.041492482028551374 -0.0327040361597231
000750 62 4e 24 8c 8d 49 9d bf 77 6e d1 ff fd 6c ab bf
       -0.028600894621446556 -0.053565919378084574
000760 d9 9f 23 f6 d3 8a a7 bf 7e 0a 9a 4e 41 a6 aa bf
       -0.04598104838970558 -0.05204967579358753
000770 ad 15 5f ce bf f8 bf 3f 83 c8 b4 8e 17 9b 8c bf
       0.1248893622242437 -0.013967689554736267
000780 e4 3e 31 79 86 bf ae bf 5a 2f 1b 28 f3 6d b0 bf
       -0.06005497197531698 -0.06417770127444325
000790 86 aa 63 24 d1 b0 a1 bf f0 9e 29 c9 cb b6 ae bf
       -0.03455213135915351 -0.05998837309453886
0007a0 fb 6d 13 c3 c9 fd a3 bf d0 e1 de a5 fd dc 99 bf
       -0.0390456247930295 -0.025257075547161112
0007b0 b4 07 13 2f 55 33 a5 bf 70 18 a4 e7 92 65 aa bf
       -0.04140726279867071 -0.05155619695328617
0007c0 ef f1 af 24 e0 f1 a3 bf 58 22 22 fa e0 6b 99 bf
       -0.038954739073208226 -0.024825587527205734
0007d0 d7 e2 0d 1a b8 c3 c0 bf 5d 1f 71 81 73 31 aa bf
       -0.13097287437610447 -0.051158532668124514
0007e0 e7 ea 0c 7a d0 8d 72 bf af 0b c6 b5 b1 19 b4 bf
       -0.004529775965063299 -0.0785170620711557
0007f0 b9 68 f7 bf 3c f7 a3 bf 30 a0 a3 d7 db 6a a9 bf
       -0.0389956459363971 -0.049643392632617966
